2022-08-18,"AttentionUnet(
  (model): Sequential(
    (0): ConvBlock(
      (conv): Sequential(
        (0): Convolution(
          (conv): Conv2d(1, 64, kernel_size=(3, 3), stride=(1, 1), padding=(1, 1))
          (adn): ADN(
            (N): BatchNorm2d(64, eps=1e-05, momentum=0.1, affine=True, track_running_stats=True)
            (D): Dropout(p=0.0, inplace=False)
            (A): ReLU()
          )
        )
        (1): Convolution(
          (conv): Conv2d(64, 64, kernel_size=(3, 3), stride=(1, 1), padding=(1, 1))
          (adn): ADN(
            (N): BatchNorm2d(64, eps=1e-05, momentum=0.1, affine=True, track_running_stats=True)
            (D): Dropout(p=0.0, inplace=False)
            (A): ReLU()
          )
        )
      )
    )
    (1): AttentionLayer(
      (attention): AttentionBlock(
        (W_g): Sequential(
          (0): Convolution(
            (conv): Conv2d(64, 32, kernel_size=(1, 1), stride=(1, 1))
          )
          (1): BatchNorm2d(32, eps=1e-05, momentum=0.1, affine=True, track_running_stats=True)
        )
        (W_x): Sequential(
          (0): Convolution(
            (conv): Conv2d(64, 32, kernel_size=(1, 1), stride=(1, 1))
          )
          (1): BatchNorm2d(32, eps=1e-05, momentum=0.1, affine=True, track_running_stats=True)
        )
        (psi): Sequential(
          (0): Convolution(
            (conv): Conv2d(32, 1, kernel_size=(1, 1), stride=(1, 1))
          )
          (1): BatchNorm2d(1, eps=1e-05, momentum=0.1, affine=True, track_running_stats=True)
          (2): Sigmoid()
        )
        (relu): ReLU()
      )
      (upconv): UpConv(
        (up): Convolution(
          (conv): ConvTranspose2d(128, 64, kernel_size=(3, 3), stride=(2, 2), padding=(1, 1), output_padding=(1, 1))
          (adn): ADN(
            (N): BatchNorm2d(64, eps=1e-05, momentum=0.1, affine=True, track_running_stats=True)
            (D): Dropout(p=0.0, inplace=False)
            (A): ReLU()
          )
        )
      )
      (merge): Convolution(
        (conv): Conv2d(128, 64, kernel_size=(3, 3), stride=(1, 1), padding=(1, 1))
        (adn): ADN(
          (N): InstanceNorm2d(64, eps=1e-05, momentum=0.1, affine=False, track_running_stats=False)
          (D): Dropout(p=0.0, inplace=False)
          (A): PReLU(num_parameters=1)
        )
      )
      (submodule): Sequential(
        (0): ConvBlock(
          (conv): Sequential(
            (0): Convolution(
              (conv): Conv2d(64, 128, kernel_size=(3, 3), stride=(2, 2), padding=(1, 1))
              (adn): ADN(
                (N): BatchNorm2d(128, eps=1e-05, momentum=0.1, affine=True, track_running_stats=True)
                (D): Dropout(p=0.0, inplace=False)
                (A): ReLU()
              )
            )
            (1): Convolution(
              (conv): Conv2d(128, 128, kernel_size=(3, 3), stride=(1, 1), padding=(1, 1))
              (adn): ADN(
                (N): BatchNorm2d(128, eps=1e-05, momentum=0.1, affine=True, track_running_stats=True)
                (D): Dropout(p=0.0, inplace=False)
                (A): ReLU()
              )
            )
          )
        )
        (1): AttentionLayer(
          (attention): AttentionBlock(
            (W_g): Sequential(
              (0): Convolution(
                (conv): Conv2d(128, 64, kernel_size=(1, 1), stride=(1, 1))
              )
              (1): BatchNorm2d(64, eps=1e-05, momentum=0.1, affine=True, track_running_stats=True)
            )
            (W_x): Sequential(
              (0): Convolution(
                (conv): Conv2d(128, 64, kernel_size=(1, 1), stride=(1, 1))
              )
              (1): BatchNorm2d(64, eps=1e-05, momentum=0.1, affine=True, track_running_stats=True)
            )
            (psi): Sequential(
              (0): Convolution(
                (conv): Conv2d(64, 1, kernel_size=(1, 1), stride=(1, 1))
              )
              (1): BatchNorm2d(1, eps=1e-05, momentum=0.1, affine=True, track_running_stats=True)
              (2): Sigmoid()
            )
            (relu): ReLU()
          )
          (upconv): UpConv(
            (up): Convolution(
              (conv): ConvTranspose2d(256, 128, kernel_size=(3, 3), stride=(2, 2), padding=(1, 1), output_padding=(1, 1))
              (adn): ADN(
                (N): BatchNorm2d(128, eps=1e-05, momentum=0.1, affine=True, track_running_stats=True)
                (D): Dropout(p=0.0, inplace=False)
                (A): ReLU()
              )
            )
          )
          (merge): Convolution(
            (conv): Conv2d(256, 128, kernel_size=(3, 3), stride=(1, 1), padding=(1, 1))
            (adn): ADN(
              (N): InstanceNorm2d(128, eps=1e-05, momentum=0.1, affine=False, track_running_stats=False)
              (D): Dropout(p=0.0, inplace=False)
              (A): PReLU(num_parameters=1)
            )
          )
          (submodule): ConvBlock(
            (conv): Sequential(
              (0): Convolution(
                (conv): Conv2d(128, 256, kernel_size=(3, 3), stride=(2, 2), padding=(1, 1))
                (adn): ADN(
                  (N): BatchNorm2d(256, eps=1e-05, momentum=0.1, affine=True, track_running_stats=True)
                  (D): Dropout(p=0.0, inplace=False)
                  (A): ReLU()
                )
              )
              (1): Convolution(
                (conv): Conv2d(256, 256, kernel_size=(3, 3), stride=(1, 1), padding=(1, 1))
                (adn): ADN(
                  (N): BatchNorm2d(256, eps=1e-05, momentum=0.1, affine=True, track_running_stats=True)
                  (D): Dropout(p=0.0, inplace=False)
                  (A): ReLU()
                )
              )
            )
          )
        )
      )
    )
    (2): Convolution(
      (conv): Conv2d(64, 1, kernel_size=(1, 1), stride=(1, 1))
    )
  )
)",validation/AttentionUnet/AttentionUnet_0_2022-08-18.png,0.004120849538594484
2022-08-18,"AttentionUnet(
  (model): Sequential(
    (0): ConvBlock(
      (conv): Sequential(
        (0): Convolution(
          (conv): Conv2d(1, 64, kernel_size=(3, 3), stride=(1, 1), padding=(1, 1))
          (adn): ADN(
            (N): BatchNorm2d(64, eps=1e-05, momentum=0.1, affine=True, track_running_stats=True)
            (D): Dropout(p=0.0, inplace=False)
            (A): ReLU()
          )
        )
        (1): Convolution(
          (conv): Conv2d(64, 64, kernel_size=(3, 3), stride=(1, 1), padding=(1, 1))
          (adn): ADN(
            (N): BatchNorm2d(64, eps=1e-05, momentum=0.1, affine=True, track_running_stats=True)
            (D): Dropout(p=0.0, inplace=False)
            (A): ReLU()
          )
        )
      )
    )
    (1): AttentionLayer(
      (attention): AttentionBlock(
        (W_g): Sequential(
          (0): Convolution(
            (conv): Conv2d(64, 32, kernel_size=(1, 1), stride=(1, 1))
          )
          (1): BatchNorm2d(32, eps=1e-05, momentum=0.1, affine=True, track_running_stats=True)
        )
        (W_x): Sequential(
          (0): Convolution(
            (conv): Conv2d(64, 32, kernel_size=(1, 1), stride=(1, 1))
          )
          (1): BatchNorm2d(32, eps=1e-05, momentum=0.1, affine=True, track_running_stats=True)
        )
        (psi): Sequential(
          (0): Convolution(
            (conv): Conv2d(32, 1, kernel_size=(1, 1), stride=(1, 1))
          )
          (1): BatchNorm2d(1, eps=1e-05, momentum=0.1, affine=True, track_running_stats=True)
          (2): Sigmoid()
        )
        (relu): ReLU()
      )
      (upconv): UpConv(
        (up): Convolution(
          (conv): ConvTranspose2d(128, 64, kernel_size=(3, 3), stride=(2, 2), padding=(1, 1), output_padding=(1, 1))
          (adn): ADN(
            (N): BatchNorm2d(64, eps=1e-05, momentum=0.1, affine=True, track_running_stats=True)
            (D): Dropout(p=0.0, inplace=False)
            (A): ReLU()
          )
        )
      )
      (merge): Convolution(
        (conv): Conv2d(128, 64, kernel_size=(3, 3), stride=(1, 1), padding=(1, 1))
        (adn): ADN(
          (N): InstanceNorm2d(64, eps=1e-05, momentum=0.1, affine=False, track_running_stats=False)
          (D): Dropout(p=0.0, inplace=False)
          (A): PReLU(num_parameters=1)
        )
      )
      (submodule): Sequential(
        (0): ConvBlock(
          (conv): Sequential(
            (0): Convolution(
              (conv): Conv2d(64, 128, kernel_size=(3, 3), stride=(2, 2), padding=(1, 1))
              (adn): ADN(
                (N): BatchNorm2d(128, eps=1e-05, momentum=0.1, affine=True, track_running_stats=True)
                (D): Dropout(p=0.0, inplace=False)
                (A): ReLU()
              )
            )
            (1): Convolution(
              (conv): Conv2d(128, 128, kernel_size=(3, 3), stride=(1, 1), padding=(1, 1))
              (adn): ADN(
                (N): BatchNorm2d(128, eps=1e-05, momentum=0.1, affine=True, track_running_stats=True)
                (D): Dropout(p=0.0, inplace=False)
                (A): ReLU()
              )
            )
          )
        )
        (1): AttentionLayer(
          (attention): AttentionBlock(
            (W_g): Sequential(
              (0): Convolution(
                (conv): Conv2d(128, 64, kernel_size=(1, 1), stride=(1, 1))
              )
              (1): BatchNorm2d(64, eps=1e-05, momentum=0.1, affine=True, track_running_stats=True)
            )
            (W_x): Sequential(
              (0): Convolution(
                (conv): Conv2d(128, 64, kernel_size=(1, 1), stride=(1, 1))
              )
              (1): BatchNorm2d(64, eps=1e-05, momentum=0.1, affine=True, track_running_stats=True)
            )
            (psi): Sequential(
              (0): Convolution(
                (conv): Conv2d(64, 1, kernel_size=(1, 1), stride=(1, 1))
              )
              (1): BatchNorm2d(1, eps=1e-05, momentum=0.1, affine=True, track_running_stats=True)
              (2): Sigmoid()
            )
            (relu): ReLU()
          )
          (upconv): UpConv(
            (up): Convolution(
              (conv): ConvTranspose2d(256, 128, kernel_size=(3, 3), stride=(2, 2), padding=(1, 1), output_padding=(1, 1))
              (adn): ADN(
                (N): BatchNorm2d(128, eps=1e-05, momentum=0.1, affine=True, track_running_stats=True)
                (D): Dropout(p=0.0, inplace=False)
                (A): ReLU()
              )
            )
          )
          (merge): Convolution(
            (conv): Conv2d(256, 128, kernel_size=(3, 3), stride=(1, 1), padding=(1, 1))
            (adn): ADN(
              (N): InstanceNorm2d(128, eps=1e-05, momentum=0.1, affine=False, track_running_stats=False)
              (D): Dropout(p=0.0, inplace=False)
              (A): PReLU(num_parameters=1)
            )
          )
          (submodule): ConvBlock(
            (conv): Sequential(
              (0): Convolution(
                (conv): Conv2d(128, 256, kernel_size=(3, 3), stride=(2, 2), padding=(1, 1))
                (adn): ADN(
                  (N): BatchNorm2d(256, eps=1e-05, momentum=0.1, affine=True, track_running_stats=True)
                  (D): Dropout(p=0.0, inplace=False)
                  (A): ReLU()
                )
              )
              (1): Convolution(
                (conv): Conv2d(256, 256, kernel_size=(3, 3), stride=(1, 1), padding=(1, 1))
                (adn): ADN(
                  (N): BatchNorm2d(256, eps=1e-05, momentum=0.1, affine=True, track_running_stats=True)
                  (D): Dropout(p=0.0, inplace=False)
                  (A): ReLU()
                )
              )
            )
          )
        )
      )
    )
    (2): Convolution(
      (conv): Conv2d(64, 1, kernel_size=(1, 1), stride=(1, 1))
    )
  )
)",validation/AttentionUnet/AttentionUnet_1_2022-08-18.png,0.45669296383857727
2022-08-18,"AttentionUnet(
  (model): Sequential(
    (0): ConvBlock(
      (conv): Sequential(
        (0): Convolution(
          (conv): Conv2d(1, 64, kernel_size=(3, 3), stride=(1, 1), padding=(1, 1))
          (adn): ADN(
            (N): BatchNorm2d(64, eps=1e-05, momentum=0.1, affine=True, track_running_stats=True)
            (D): Dropout(p=0.0, inplace=False)
            (A): ReLU()
          )
        )
        (1): Convolution(
          (conv): Conv2d(64, 64, kernel_size=(3, 3), stride=(1, 1), padding=(1, 1))
          (adn): ADN(
            (N): BatchNorm2d(64, eps=1e-05, momentum=0.1, affine=True, track_running_stats=True)
            (D): Dropout(p=0.0, inplace=False)
            (A): ReLU()
          )
        )
      )
    )
    (1): AttentionLayer(
      (attention): AttentionBlock(
        (W_g): Sequential(
          (0): Convolution(
            (conv): Conv2d(64, 32, kernel_size=(1, 1), stride=(1, 1))
          )
          (1): BatchNorm2d(32, eps=1e-05, momentum=0.1, affine=True, track_running_stats=True)
        )
        (W_x): Sequential(
          (0): Convolution(
            (conv): Conv2d(64, 32, kernel_size=(1, 1), stride=(1, 1))
          )
          (1): BatchNorm2d(32, eps=1e-05, momentum=0.1, affine=True, track_running_stats=True)
        )
        (psi): Sequential(
          (0): Convolution(
            (conv): Conv2d(32, 1, kernel_size=(1, 1), stride=(1, 1))
          )
          (1): BatchNorm2d(1, eps=1e-05, momentum=0.1, affine=True, track_running_stats=True)
          (2): Sigmoid()
        )
        (relu): ReLU()
      )
      (upconv): UpConv(
        (up): Convolution(
          (conv): ConvTranspose2d(128, 64, kernel_size=(3, 3), stride=(2, 2), padding=(1, 1), output_padding=(1, 1))
          (adn): ADN(
            (N): BatchNorm2d(64, eps=1e-05, momentum=0.1, affine=True, track_running_stats=True)
            (D): Dropout(p=0.0, inplace=False)
            (A): ReLU()
          )
        )
      )
      (merge): Convolution(
        (conv): Conv2d(128, 64, kernel_size=(3, 3), stride=(1, 1), padding=(1, 1))
        (adn): ADN(
          (N): InstanceNorm2d(64, eps=1e-05, momentum=0.1, affine=False, track_running_stats=False)
          (D): Dropout(p=0.0, inplace=False)
          (A): PReLU(num_parameters=1)
        )
      )
      (submodule): Sequential(
        (0): ConvBlock(
          (conv): Sequential(
            (0): Convolution(
              (conv): Conv2d(64, 128, kernel_size=(3, 3), stride=(2, 2), padding=(1, 1))
              (adn): ADN(
                (N): BatchNorm2d(128, eps=1e-05, momentum=0.1, affine=True, track_running_stats=True)
                (D): Dropout(p=0.0, inplace=False)
                (A): ReLU()
              )
            )
            (1): Convolution(
              (conv): Conv2d(128, 128, kernel_size=(3, 3), stride=(1, 1), padding=(1, 1))
              (adn): ADN(
                (N): BatchNorm2d(128, eps=1e-05, momentum=0.1, affine=True, track_running_stats=True)
                (D): Dropout(p=0.0, inplace=False)
                (A): ReLU()
              )
            )
          )
        )
        (1): AttentionLayer(
          (attention): AttentionBlock(
            (W_g): Sequential(
              (0): Convolution(
                (conv): Conv2d(128, 64, kernel_size=(1, 1), stride=(1, 1))
              )
              (1): BatchNorm2d(64, eps=1e-05, momentum=0.1, affine=True, track_running_stats=True)
            )
            (W_x): Sequential(
              (0): Convolution(
                (conv): Conv2d(128, 64, kernel_size=(1, 1), stride=(1, 1))
              )
              (1): BatchNorm2d(64, eps=1e-05, momentum=0.1, affine=True, track_running_stats=True)
            )
            (psi): Sequential(
              (0): Convolution(
                (conv): Conv2d(64, 1, kernel_size=(1, 1), stride=(1, 1))
              )
              (1): BatchNorm2d(1, eps=1e-05, momentum=0.1, affine=True, track_running_stats=True)
              (2): Sigmoid()
            )
            (relu): ReLU()
          )
          (upconv): UpConv(
            (up): Convolution(
              (conv): ConvTranspose2d(256, 128, kernel_size=(3, 3), stride=(2, 2), padding=(1, 1), output_padding=(1, 1))
              (adn): ADN(
                (N): BatchNorm2d(128, eps=1e-05, momentum=0.1, affine=True, track_running_stats=True)
                (D): Dropout(p=0.0, inplace=False)
                (A): ReLU()
              )
            )
          )
          (merge): Convolution(
            (conv): Conv2d(256, 128, kernel_size=(3, 3), stride=(1, 1), padding=(1, 1))
            (adn): ADN(
              (N): InstanceNorm2d(128, eps=1e-05, momentum=0.1, affine=False, track_running_stats=False)
              (D): Dropout(p=0.0, inplace=False)
              (A): PReLU(num_parameters=1)
            )
          )
          (submodule): ConvBlock(
            (conv): Sequential(
              (0): Convolution(
                (conv): Conv2d(128, 256, kernel_size=(3, 3), stride=(2, 2), padding=(1, 1))
                (adn): ADN(
                  (N): BatchNorm2d(256, eps=1e-05, momentum=0.1, affine=True, track_running_stats=True)
                  (D): Dropout(p=0.0, inplace=False)
                  (A): ReLU()
                )
              )
              (1): Convolution(
                (conv): Conv2d(256, 256, kernel_size=(3, 3), stride=(1, 1), padding=(1, 1))
                (adn): ADN(
                  (N): BatchNorm2d(256, eps=1e-05, momentum=0.1, affine=True, track_running_stats=True)
                  (D): Dropout(p=0.0, inplace=False)
                  (A): ReLU()
                )
              )
            )
          )
        )
      )
    )
    (2): Convolution(
      (conv): Conv2d(64, 1, kernel_size=(1, 1), stride=(1, 1))
    )
  )
)",validation/AttentionUnet/AttentionUnet_2_2022-08-18.png,0.0
2022-08-18,"AttentionUnet(
  (model): Sequential(
    (0): ConvBlock(
      (conv): Sequential(
        (0): Convolution(
          (conv): Conv2d(1, 64, kernel_size=(3, 3), stride=(1, 1), padding=(1, 1))
          (adn): ADN(
            (N): BatchNorm2d(64, eps=1e-05, momentum=0.1, affine=True, track_running_stats=True)
            (D): Dropout(p=0.0, inplace=False)
            (A): ReLU()
          )
        )
        (1): Convolution(
          (conv): Conv2d(64, 64, kernel_size=(3, 3), stride=(1, 1), padding=(1, 1))
          (adn): ADN(
            (N): BatchNorm2d(64, eps=1e-05, momentum=0.1, affine=True, track_running_stats=True)
            (D): Dropout(p=0.0, inplace=False)
            (A): ReLU()
          )
        )
      )
    )
    (1): AttentionLayer(
      (attention): AttentionBlock(
        (W_g): Sequential(
          (0): Convolution(
            (conv): Conv2d(64, 32, kernel_size=(1, 1), stride=(1, 1))
          )
          (1): BatchNorm2d(32, eps=1e-05, momentum=0.1, affine=True, track_running_stats=True)
        )
        (W_x): Sequential(
          (0): Convolution(
            (conv): Conv2d(64, 32, kernel_size=(1, 1), stride=(1, 1))
          )
          (1): BatchNorm2d(32, eps=1e-05, momentum=0.1, affine=True, track_running_stats=True)
        )
        (psi): Sequential(
          (0): Convolution(
            (conv): Conv2d(32, 1, kernel_size=(1, 1), stride=(1, 1))
          )
          (1): BatchNorm2d(1, eps=1e-05, momentum=0.1, affine=True, track_running_stats=True)
          (2): Sigmoid()
        )
        (relu): ReLU()
      )
      (upconv): UpConv(
        (up): Convolution(
          (conv): ConvTranspose2d(128, 64, kernel_size=(3, 3), stride=(2, 2), padding=(1, 1), output_padding=(1, 1))
          (adn): ADN(
            (N): BatchNorm2d(64, eps=1e-05, momentum=0.1, affine=True, track_running_stats=True)
            (D): Dropout(p=0.0, inplace=False)
            (A): ReLU()
          )
        )
      )
      (merge): Convolution(
        (conv): Conv2d(128, 64, kernel_size=(3, 3), stride=(1, 1), padding=(1, 1))
        (adn): ADN(
          (N): InstanceNorm2d(64, eps=1e-05, momentum=0.1, affine=False, track_running_stats=False)
          (D): Dropout(p=0.0, inplace=False)
          (A): PReLU(num_parameters=1)
        )
      )
      (submodule): Sequential(
        (0): ConvBlock(
          (conv): Sequential(
            (0): Convolution(
              (conv): Conv2d(64, 128, kernel_size=(3, 3), stride=(2, 2), padding=(1, 1))
              (adn): ADN(
                (N): BatchNorm2d(128, eps=1e-05, momentum=0.1, affine=True, track_running_stats=True)
                (D): Dropout(p=0.0, inplace=False)
                (A): ReLU()
              )
            )
            (1): Convolution(
              (conv): Conv2d(128, 128, kernel_size=(3, 3), stride=(1, 1), padding=(1, 1))
              (adn): ADN(
                (N): BatchNorm2d(128, eps=1e-05, momentum=0.1, affine=True, track_running_stats=True)
                (D): Dropout(p=0.0, inplace=False)
                (A): ReLU()
              )
            )
          )
        )
        (1): AttentionLayer(
          (attention): AttentionBlock(
            (W_g): Sequential(
              (0): Convolution(
                (conv): Conv2d(128, 64, kernel_size=(1, 1), stride=(1, 1))
              )
              (1): BatchNorm2d(64, eps=1e-05, momentum=0.1, affine=True, track_running_stats=True)
            )
            (W_x): Sequential(
              (0): Convolution(
                (conv): Conv2d(128, 64, kernel_size=(1, 1), stride=(1, 1))
              )
              (1): BatchNorm2d(64, eps=1e-05, momentum=0.1, affine=True, track_running_stats=True)
            )
            (psi): Sequential(
              (0): Convolution(
                (conv): Conv2d(64, 1, kernel_size=(1, 1), stride=(1, 1))
              )
              (1): BatchNorm2d(1, eps=1e-05, momentum=0.1, affine=True, track_running_stats=True)
              (2): Sigmoid()
            )
            (relu): ReLU()
          )
          (upconv): UpConv(
            (up): Convolution(
              (conv): ConvTranspose2d(256, 128, kernel_size=(3, 3), stride=(2, 2), padding=(1, 1), output_padding=(1, 1))
              (adn): ADN(
                (N): BatchNorm2d(128, eps=1e-05, momentum=0.1, affine=True, track_running_stats=True)
                (D): Dropout(p=0.0, inplace=False)
                (A): ReLU()
              )
            )
          )
          (merge): Convolution(
            (conv): Conv2d(256, 128, kernel_size=(3, 3), stride=(1, 1), padding=(1, 1))
            (adn): ADN(
              (N): InstanceNorm2d(128, eps=1e-05, momentum=0.1, affine=False, track_running_stats=False)
              (D): Dropout(p=0.0, inplace=False)
              (A): PReLU(num_parameters=1)
            )
          )
          (submodule): ConvBlock(
            (conv): Sequential(
              (0): Convolution(
                (conv): Conv2d(128, 256, kernel_size=(3, 3), stride=(2, 2), padding=(1, 1))
                (adn): ADN(
                  (N): BatchNorm2d(256, eps=1e-05, momentum=0.1, affine=True, track_running_stats=True)
                  (D): Dropout(p=0.0, inplace=False)
                  (A): ReLU()
                )
              )
              (1): Convolution(
                (conv): Conv2d(256, 256, kernel_size=(3, 3), stride=(1, 1), padding=(1, 1))
                (adn): ADN(
                  (N): BatchNorm2d(256, eps=1e-05, momentum=0.1, affine=True, track_running_stats=True)
                  (D): Dropout(p=0.0, inplace=False)
                  (A): ReLU()
                )
              )
            )
          )
        )
      )
    )
    (2): Convolution(
      (conv): Conv2d(64, 1, kernel_size=(1, 1), stride=(1, 1))
    )
  )
)",validation/AttentionUnet/AttentionUnet_3_2022-08-18.png,0.31975388526916504
2022-08-18,"AttentionUnet(
  (model): Sequential(
    (0): ConvBlock(
      (conv): Sequential(
        (0): Convolution(
          (conv): Conv2d(1, 64, kernel_size=(3, 3), stride=(1, 1), padding=(1, 1))
          (adn): ADN(
            (N): BatchNorm2d(64, eps=1e-05, momentum=0.1, affine=True, track_running_stats=True)
            (D): Dropout(p=0.0, inplace=False)
            (A): ReLU()
          )
        )
        (1): Convolution(
          (conv): Conv2d(64, 64, kernel_size=(3, 3), stride=(1, 1), padding=(1, 1))
          (adn): ADN(
            (N): BatchNorm2d(64, eps=1e-05, momentum=0.1, affine=True, track_running_stats=True)
            (D): Dropout(p=0.0, inplace=False)
            (A): ReLU()
          )
        )
      )
    )
    (1): AttentionLayer(
      (attention): AttentionBlock(
        (W_g): Sequential(
          (0): Convolution(
            (conv): Conv2d(64, 32, kernel_size=(1, 1), stride=(1, 1))
          )
          (1): BatchNorm2d(32, eps=1e-05, momentum=0.1, affine=True, track_running_stats=True)
        )
        (W_x): Sequential(
          (0): Convolution(
            (conv): Conv2d(64, 32, kernel_size=(1, 1), stride=(1, 1))
          )
          (1): BatchNorm2d(32, eps=1e-05, momentum=0.1, affine=True, track_running_stats=True)
        )
        (psi): Sequential(
          (0): Convolution(
            (conv): Conv2d(32, 1, kernel_size=(1, 1), stride=(1, 1))
          )
          (1): BatchNorm2d(1, eps=1e-05, momentum=0.1, affine=True, track_running_stats=True)
          (2): Sigmoid()
        )
        (relu): ReLU()
      )
      (upconv): UpConv(
        (up): Convolution(
          (conv): ConvTranspose2d(128, 64, kernel_size=(3, 3), stride=(2, 2), padding=(1, 1), output_padding=(1, 1))
          (adn): ADN(
            (N): BatchNorm2d(64, eps=1e-05, momentum=0.1, affine=True, track_running_stats=True)
            (D): Dropout(p=0.0, inplace=False)
            (A): ReLU()
          )
        )
      )
      (merge): Convolution(
        (conv): Conv2d(128, 64, kernel_size=(3, 3), stride=(1, 1), padding=(1, 1))
        (adn): ADN(
          (N): InstanceNorm2d(64, eps=1e-05, momentum=0.1, affine=False, track_running_stats=False)
          (D): Dropout(p=0.0, inplace=False)
          (A): PReLU(num_parameters=1)
        )
      )
      (submodule): Sequential(
        (0): ConvBlock(
          (conv): Sequential(
            (0): Convolution(
              (conv): Conv2d(64, 128, kernel_size=(3, 3), stride=(2, 2), padding=(1, 1))
              (adn): ADN(
                (N): BatchNorm2d(128, eps=1e-05, momentum=0.1, affine=True, track_running_stats=True)
                (D): Dropout(p=0.0, inplace=False)
                (A): ReLU()
              )
            )
            (1): Convolution(
              (conv): Conv2d(128, 128, kernel_size=(3, 3), stride=(1, 1), padding=(1, 1))
              (adn): ADN(
                (N): BatchNorm2d(128, eps=1e-05, momentum=0.1, affine=True, track_running_stats=True)
                (D): Dropout(p=0.0, inplace=False)
                (A): ReLU()
              )
            )
          )
        )
        (1): AttentionLayer(
          (attention): AttentionBlock(
            (W_g): Sequential(
              (0): Convolution(
                (conv): Conv2d(128, 64, kernel_size=(1, 1), stride=(1, 1))
              )
              (1): BatchNorm2d(64, eps=1e-05, momentum=0.1, affine=True, track_running_stats=True)
            )
            (W_x): Sequential(
              (0): Convolution(
                (conv): Conv2d(128, 64, kernel_size=(1, 1), stride=(1, 1))
              )
              (1): BatchNorm2d(64, eps=1e-05, momentum=0.1, affine=True, track_running_stats=True)
            )
            (psi): Sequential(
              (0): Convolution(
                (conv): Conv2d(64, 1, kernel_size=(1, 1), stride=(1, 1))
              )
              (1): BatchNorm2d(1, eps=1e-05, momentum=0.1, affine=True, track_running_stats=True)
              (2): Sigmoid()
            )
            (relu): ReLU()
          )
          (upconv): UpConv(
            (up): Convolution(
              (conv): ConvTranspose2d(256, 128, kernel_size=(3, 3), stride=(2, 2), padding=(1, 1), output_padding=(1, 1))
              (adn): ADN(
                (N): BatchNorm2d(128, eps=1e-05, momentum=0.1, affine=True, track_running_stats=True)
                (D): Dropout(p=0.0, inplace=False)
                (A): ReLU()
              )
            )
          )
          (merge): Convolution(
            (conv): Conv2d(256, 128, kernel_size=(3, 3), stride=(1, 1), padding=(1, 1))
            (adn): ADN(
              (N): InstanceNorm2d(128, eps=1e-05, momentum=0.1, affine=False, track_running_stats=False)
              (D): Dropout(p=0.0, inplace=False)
              (A): PReLU(num_parameters=1)
            )
          )
          (submodule): ConvBlock(
            (conv): Sequential(
              (0): Convolution(
                (conv): Conv2d(128, 256, kernel_size=(3, 3), stride=(2, 2), padding=(1, 1))
                (adn): ADN(
                  (N): BatchNorm2d(256, eps=1e-05, momentum=0.1, affine=True, track_running_stats=True)
                  (D): Dropout(p=0.0, inplace=False)
                  (A): ReLU()
                )
              )
              (1): Convolution(
                (conv): Conv2d(256, 256, kernel_size=(3, 3), stride=(1, 1), padding=(1, 1))
                (adn): ADN(
                  (N): BatchNorm2d(256, eps=1e-05, momentum=0.1, affine=True, track_running_stats=True)
                  (D): Dropout(p=0.0, inplace=False)
                  (A): ReLU()
                )
              )
            )
          )
        )
      )
    )
    (2): Convolution(
      (conv): Conv2d(64, 1, kernel_size=(1, 1), stride=(1, 1))
    )
  )
)",validation/AttentionUnet/AttentionUnet_4_2022-08-18.png,0.0
2022-08-18,"AttentionUnet(
  (model): Sequential(
    (0): ConvBlock(
      (conv): Sequential(
        (0): Convolution(
          (conv): Conv2d(1, 64, kernel_size=(3, 3), stride=(1, 1), padding=(1, 1))
          (adn): ADN(
            (N): BatchNorm2d(64, eps=1e-05, momentum=0.1, affine=True, track_running_stats=True)
            (D): Dropout(p=0.0, inplace=False)
            (A): ReLU()
          )
        )
        (1): Convolution(
          (conv): Conv2d(64, 64, kernel_size=(3, 3), stride=(1, 1), padding=(1, 1))
          (adn): ADN(
            (N): BatchNorm2d(64, eps=1e-05, momentum=0.1, affine=True, track_running_stats=True)
            (D): Dropout(p=0.0, inplace=False)
            (A): ReLU()
          )
        )
      )
    )
    (1): AttentionLayer(
      (attention): AttentionBlock(
        (W_g): Sequential(
          (0): Convolution(
            (conv): Conv2d(64, 32, kernel_size=(1, 1), stride=(1, 1))
          )
          (1): BatchNorm2d(32, eps=1e-05, momentum=0.1, affine=True, track_running_stats=True)
        )
        (W_x): Sequential(
          (0): Convolution(
            (conv): Conv2d(64, 32, kernel_size=(1, 1), stride=(1, 1))
          )
          (1): BatchNorm2d(32, eps=1e-05, momentum=0.1, affine=True, track_running_stats=True)
        )
        (psi): Sequential(
          (0): Convolution(
            (conv): Conv2d(32, 1, kernel_size=(1, 1), stride=(1, 1))
          )
          (1): BatchNorm2d(1, eps=1e-05, momentum=0.1, affine=True, track_running_stats=True)
          (2): Sigmoid()
        )
        (relu): ReLU()
      )
      (upconv): UpConv(
        (up): Convolution(
          (conv): ConvTranspose2d(128, 64, kernel_size=(3, 3), stride=(2, 2), padding=(1, 1), output_padding=(1, 1))
          (adn): ADN(
            (N): BatchNorm2d(64, eps=1e-05, momentum=0.1, affine=True, track_running_stats=True)
            (D): Dropout(p=0.0, inplace=False)
            (A): ReLU()
          )
        )
      )
      (merge): Convolution(
        (conv): Conv2d(128, 64, kernel_size=(3, 3), stride=(1, 1), padding=(1, 1))
        (adn): ADN(
          (N): InstanceNorm2d(64, eps=1e-05, momentum=0.1, affine=False, track_running_stats=False)
          (D): Dropout(p=0.0, inplace=False)
          (A): PReLU(num_parameters=1)
        )
      )
      (submodule): Sequential(
        (0): ConvBlock(
          (conv): Sequential(
            (0): Convolution(
              (conv): Conv2d(64, 128, kernel_size=(3, 3), stride=(2, 2), padding=(1, 1))
              (adn): ADN(
                (N): BatchNorm2d(128, eps=1e-05, momentum=0.1, affine=True, track_running_stats=True)
                (D): Dropout(p=0.0, inplace=False)
                (A): ReLU()
              )
            )
            (1): Convolution(
              (conv): Conv2d(128, 128, kernel_size=(3, 3), stride=(1, 1), padding=(1, 1))
              (adn): ADN(
                (N): BatchNorm2d(128, eps=1e-05, momentum=0.1, affine=True, track_running_stats=True)
                (D): Dropout(p=0.0, inplace=False)
                (A): ReLU()
              )
            )
          )
        )
        (1): AttentionLayer(
          (attention): AttentionBlock(
            (W_g): Sequential(
              (0): Convolution(
                (conv): Conv2d(128, 64, kernel_size=(1, 1), stride=(1, 1))
              )
              (1): BatchNorm2d(64, eps=1e-05, momentum=0.1, affine=True, track_running_stats=True)
            )
            (W_x): Sequential(
              (0): Convolution(
                (conv): Conv2d(128, 64, kernel_size=(1, 1), stride=(1, 1))
              )
              (1): BatchNorm2d(64, eps=1e-05, momentum=0.1, affine=True, track_running_stats=True)
            )
            (psi): Sequential(
              (0): Convolution(
                (conv): Conv2d(64, 1, kernel_size=(1, 1), stride=(1, 1))
              )
              (1): BatchNorm2d(1, eps=1e-05, momentum=0.1, affine=True, track_running_stats=True)
              (2): Sigmoid()
            )
            (relu): ReLU()
          )
          (upconv): UpConv(
            (up): Convolution(
              (conv): ConvTranspose2d(256, 128, kernel_size=(3, 3), stride=(2, 2), padding=(1, 1), output_padding=(1, 1))
              (adn): ADN(
                (N): BatchNorm2d(128, eps=1e-05, momentum=0.1, affine=True, track_running_stats=True)
                (D): Dropout(p=0.0, inplace=False)
                (A): ReLU()
              )
            )
          )
          (merge): Convolution(
            (conv): Conv2d(256, 128, kernel_size=(3, 3), stride=(1, 1), padding=(1, 1))
            (adn): ADN(
              (N): InstanceNorm2d(128, eps=1e-05, momentum=0.1, affine=False, track_running_stats=False)
              (D): Dropout(p=0.0, inplace=False)
              (A): PReLU(num_parameters=1)
            )
          )
          (submodule): ConvBlock(
            (conv): Sequential(
              (0): Convolution(
                (conv): Conv2d(128, 256, kernel_size=(3, 3), stride=(2, 2), padding=(1, 1))
                (adn): ADN(
                  (N): BatchNorm2d(256, eps=1e-05, momentum=0.1, affine=True, track_running_stats=True)
                  (D): Dropout(p=0.0, inplace=False)
                  (A): ReLU()
                )
              )
              (1): Convolution(
                (conv): Conv2d(256, 256, kernel_size=(3, 3), stride=(1, 1), padding=(1, 1))
                (adn): ADN(
                  (N): BatchNorm2d(256, eps=1e-05, momentum=0.1, affine=True, track_running_stats=True)
                  (D): Dropout(p=0.0, inplace=False)
                  (A): ReLU()
                )
              )
            )
          )
        )
      )
    )
    (2): Convolution(
      (conv): Conv2d(64, 1, kernel_size=(1, 1), stride=(1, 1))
    )
  )
)",validation/AttentionUnet/AttentionUnet_5_2022-08-18.png,0.7368994951248169
2022-08-18,"AttentionUnet(
  (model): Sequential(
    (0): ConvBlock(
      (conv): Sequential(
        (0): Convolution(
          (conv): Conv2d(1, 64, kernel_size=(3, 3), stride=(1, 1), padding=(1, 1))
          (adn): ADN(
            (N): BatchNorm2d(64, eps=1e-05, momentum=0.1, affine=True, track_running_stats=True)
            (D): Dropout(p=0.0, inplace=False)
            (A): ReLU()
          )
        )
        (1): Convolution(
          (conv): Conv2d(64, 64, kernel_size=(3, 3), stride=(1, 1), padding=(1, 1))
          (adn): ADN(
            (N): BatchNorm2d(64, eps=1e-05, momentum=0.1, affine=True, track_running_stats=True)
            (D): Dropout(p=0.0, inplace=False)
            (A): ReLU()
          )
        )
      )
    )
    (1): AttentionLayer(
      (attention): AttentionBlock(
        (W_g): Sequential(
          (0): Convolution(
            (conv): Conv2d(64, 32, kernel_size=(1, 1), stride=(1, 1))
          )
          (1): BatchNorm2d(32, eps=1e-05, momentum=0.1, affine=True, track_running_stats=True)
        )
        (W_x): Sequential(
          (0): Convolution(
            (conv): Conv2d(64, 32, kernel_size=(1, 1), stride=(1, 1))
          )
          (1): BatchNorm2d(32, eps=1e-05, momentum=0.1, affine=True, track_running_stats=True)
        )
        (psi): Sequential(
          (0): Convolution(
            (conv): Conv2d(32, 1, kernel_size=(1, 1), stride=(1, 1))
          )
          (1): BatchNorm2d(1, eps=1e-05, momentum=0.1, affine=True, track_running_stats=True)
          (2): Sigmoid()
        )
        (relu): ReLU()
      )
      (upconv): UpConv(
        (up): Convolution(
          (conv): ConvTranspose2d(128, 64, kernel_size=(3, 3), stride=(2, 2), padding=(1, 1), output_padding=(1, 1))
          (adn): ADN(
            (N): BatchNorm2d(64, eps=1e-05, momentum=0.1, affine=True, track_running_stats=True)
            (D): Dropout(p=0.0, inplace=False)
            (A): ReLU()
          )
        )
      )
      (merge): Convolution(
        (conv): Conv2d(128, 64, kernel_size=(3, 3), stride=(1, 1), padding=(1, 1))
        (adn): ADN(
          (N): InstanceNorm2d(64, eps=1e-05, momentum=0.1, affine=False, track_running_stats=False)
          (D): Dropout(p=0.0, inplace=False)
          (A): PReLU(num_parameters=1)
        )
      )
      (submodule): Sequential(
        (0): ConvBlock(
          (conv): Sequential(
            (0): Convolution(
              (conv): Conv2d(64, 128, kernel_size=(3, 3), stride=(2, 2), padding=(1, 1))
              (adn): ADN(
                (N): BatchNorm2d(128, eps=1e-05, momentum=0.1, affine=True, track_running_stats=True)
                (D): Dropout(p=0.0, inplace=False)
                (A): ReLU()
              )
            )
            (1): Convolution(
              (conv): Conv2d(128, 128, kernel_size=(3, 3), stride=(1, 1), padding=(1, 1))
              (adn): ADN(
                (N): BatchNorm2d(128, eps=1e-05, momentum=0.1, affine=True, track_running_stats=True)
                (D): Dropout(p=0.0, inplace=False)
                (A): ReLU()
              )
            )
          )
        )
        (1): AttentionLayer(
          (attention): AttentionBlock(
            (W_g): Sequential(
              (0): Convolution(
                (conv): Conv2d(128, 64, kernel_size=(1, 1), stride=(1, 1))
              )
              (1): BatchNorm2d(64, eps=1e-05, momentum=0.1, affine=True, track_running_stats=True)
            )
            (W_x): Sequential(
              (0): Convolution(
                (conv): Conv2d(128, 64, kernel_size=(1, 1), stride=(1, 1))
              )
              (1): BatchNorm2d(64, eps=1e-05, momentum=0.1, affine=True, track_running_stats=True)
            )
            (psi): Sequential(
              (0): Convolution(
                (conv): Conv2d(64, 1, kernel_size=(1, 1), stride=(1, 1))
              )
              (1): BatchNorm2d(1, eps=1e-05, momentum=0.1, affine=True, track_running_stats=True)
              (2): Sigmoid()
            )
            (relu): ReLU()
          )
          (upconv): UpConv(
            (up): Convolution(
              (conv): ConvTranspose2d(256, 128, kernel_size=(3, 3), stride=(2, 2), padding=(1, 1), output_padding=(1, 1))
              (adn): ADN(
                (N): BatchNorm2d(128, eps=1e-05, momentum=0.1, affine=True, track_running_stats=True)
                (D): Dropout(p=0.0, inplace=False)
                (A): ReLU()
              )
            )
          )
          (merge): Convolution(
            (conv): Conv2d(256, 128, kernel_size=(3, 3), stride=(1, 1), padding=(1, 1))
            (adn): ADN(
              (N): InstanceNorm2d(128, eps=1e-05, momentum=0.1, affine=False, track_running_stats=False)
              (D): Dropout(p=0.0, inplace=False)
              (A): PReLU(num_parameters=1)
            )
          )
          (submodule): ConvBlock(
            (conv): Sequential(
              (0): Convolution(
                (conv): Conv2d(128, 256, kernel_size=(3, 3), stride=(2, 2), padding=(1, 1))
                (adn): ADN(
                  (N): BatchNorm2d(256, eps=1e-05, momentum=0.1, affine=True, track_running_stats=True)
                  (D): Dropout(p=0.0, inplace=False)
                  (A): ReLU()
                )
              )
              (1): Convolution(
                (conv): Conv2d(256, 256, kernel_size=(3, 3), stride=(1, 1), padding=(1, 1))
                (adn): ADN(
                  (N): BatchNorm2d(256, eps=1e-05, momentum=0.1, affine=True, track_running_stats=True)
                  (D): Dropout(p=0.0, inplace=False)
                  (A): ReLU()
                )
              )
            )
          )
        )
      )
    )
    (2): Convolution(
      (conv): Conv2d(64, 1, kernel_size=(1, 1), stride=(1, 1))
    )
  )
)",validation/AttentionUnet/AttentionUnet_6_2022-08-18.png,0.0
2022-08-18,"AttentionUnet(
  (model): Sequential(
    (0): ConvBlock(
      (conv): Sequential(
        (0): Convolution(
          (conv): Conv2d(1, 64, kernel_size=(3, 3), stride=(1, 1), padding=(1, 1))
          (adn): ADN(
            (N): BatchNorm2d(64, eps=1e-05, momentum=0.1, affine=True, track_running_stats=True)
            (D): Dropout(p=0.0, inplace=False)
            (A): ReLU()
          )
        )
        (1): Convolution(
          (conv): Conv2d(64, 64, kernel_size=(3, 3), stride=(1, 1), padding=(1, 1))
          (adn): ADN(
            (N): BatchNorm2d(64, eps=1e-05, momentum=0.1, affine=True, track_running_stats=True)
            (D): Dropout(p=0.0, inplace=False)
            (A): ReLU()
          )
        )
      )
    )
    (1): AttentionLayer(
      (attention): AttentionBlock(
        (W_g): Sequential(
          (0): Convolution(
            (conv): Conv2d(64, 32, kernel_size=(1, 1), stride=(1, 1))
          )
          (1): BatchNorm2d(32, eps=1e-05, momentum=0.1, affine=True, track_running_stats=True)
        )
        (W_x): Sequential(
          (0): Convolution(
            (conv): Conv2d(64, 32, kernel_size=(1, 1), stride=(1, 1))
          )
          (1): BatchNorm2d(32, eps=1e-05, momentum=0.1, affine=True, track_running_stats=True)
        )
        (psi): Sequential(
          (0): Convolution(
            (conv): Conv2d(32, 1, kernel_size=(1, 1), stride=(1, 1))
          )
          (1): BatchNorm2d(1, eps=1e-05, momentum=0.1, affine=True, track_running_stats=True)
          (2): Sigmoid()
        )
        (relu): ReLU()
      )
      (upconv): UpConv(
        (up): Convolution(
          (conv): ConvTranspose2d(128, 64, kernel_size=(3, 3), stride=(2, 2), padding=(1, 1), output_padding=(1, 1))
          (adn): ADN(
            (N): BatchNorm2d(64, eps=1e-05, momentum=0.1, affine=True, track_running_stats=True)
            (D): Dropout(p=0.0, inplace=False)
            (A): ReLU()
          )
        )
      )
      (merge): Convolution(
        (conv): Conv2d(128, 64, kernel_size=(3, 3), stride=(1, 1), padding=(1, 1))
        (adn): ADN(
          (N): InstanceNorm2d(64, eps=1e-05, momentum=0.1, affine=False, track_running_stats=False)
          (D): Dropout(p=0.0, inplace=False)
          (A): PReLU(num_parameters=1)
        )
      )
      (submodule): Sequential(
        (0): ConvBlock(
          (conv): Sequential(
            (0): Convolution(
              (conv): Conv2d(64, 128, kernel_size=(3, 3), stride=(2, 2), padding=(1, 1))
              (adn): ADN(
                (N): BatchNorm2d(128, eps=1e-05, momentum=0.1, affine=True, track_running_stats=True)
                (D): Dropout(p=0.0, inplace=False)
                (A): ReLU()
              )
            )
            (1): Convolution(
              (conv): Conv2d(128, 128, kernel_size=(3, 3), stride=(1, 1), padding=(1, 1))
              (adn): ADN(
                (N): BatchNorm2d(128, eps=1e-05, momentum=0.1, affine=True, track_running_stats=True)
                (D): Dropout(p=0.0, inplace=False)
                (A): ReLU()
              )
            )
          )
        )
        (1): AttentionLayer(
          (attention): AttentionBlock(
            (W_g): Sequential(
              (0): Convolution(
                (conv): Conv2d(128, 64, kernel_size=(1, 1), stride=(1, 1))
              )
              (1): BatchNorm2d(64, eps=1e-05, momentum=0.1, affine=True, track_running_stats=True)
            )
            (W_x): Sequential(
              (0): Convolution(
                (conv): Conv2d(128, 64, kernel_size=(1, 1), stride=(1, 1))
              )
              (1): BatchNorm2d(64, eps=1e-05, momentum=0.1, affine=True, track_running_stats=True)
            )
            (psi): Sequential(
              (0): Convolution(
                (conv): Conv2d(64, 1, kernel_size=(1, 1), stride=(1, 1))
              )
              (1): BatchNorm2d(1, eps=1e-05, momentum=0.1, affine=True, track_running_stats=True)
              (2): Sigmoid()
            )
            (relu): ReLU()
          )
          (upconv): UpConv(
            (up): Convolution(
              (conv): ConvTranspose2d(256, 128, kernel_size=(3, 3), stride=(2, 2), padding=(1, 1), output_padding=(1, 1))
              (adn): ADN(
                (N): BatchNorm2d(128, eps=1e-05, momentum=0.1, affine=True, track_running_stats=True)
                (D): Dropout(p=0.0, inplace=False)
                (A): ReLU()
              )
            )
          )
          (merge): Convolution(
            (conv): Conv2d(256, 128, kernel_size=(3, 3), stride=(1, 1), padding=(1, 1))
            (adn): ADN(
              (N): InstanceNorm2d(128, eps=1e-05, momentum=0.1, affine=False, track_running_stats=False)
              (D): Dropout(p=0.0, inplace=False)
              (A): PReLU(num_parameters=1)
            )
          )
          (submodule): ConvBlock(
            (conv): Sequential(
              (0): Convolution(
                (conv): Conv2d(128, 256, kernel_size=(3, 3), stride=(2, 2), padding=(1, 1))
                (adn): ADN(
                  (N): BatchNorm2d(256, eps=1e-05, momentum=0.1, affine=True, track_running_stats=True)
                  (D): Dropout(p=0.0, inplace=False)
                  (A): ReLU()
                )
              )
              (1): Convolution(
                (conv): Conv2d(256, 256, kernel_size=(3, 3), stride=(1, 1), padding=(1, 1))
                (adn): ADN(
                  (N): BatchNorm2d(256, eps=1e-05, momentum=0.1, affine=True, track_running_stats=True)
                  (D): Dropout(p=0.0, inplace=False)
                  (A): ReLU()
                )
              )
            )
          )
        )
      )
    )
    (2): Convolution(
      (conv): Conv2d(64, 1, kernel_size=(1, 1), stride=(1, 1))
    )
  )
)",validation/AttentionUnet/AttentionUnet_7_2022-08-18.png,0.0
2022-08-18,"AttentionUnet(
  (model): Sequential(
    (0): ConvBlock(
      (conv): Sequential(
        (0): Convolution(
          (conv): Conv2d(1, 64, kernel_size=(3, 3), stride=(1, 1), padding=(1, 1))
          (adn): ADN(
            (N): BatchNorm2d(64, eps=1e-05, momentum=0.1, affine=True, track_running_stats=True)
            (D): Dropout(p=0.0, inplace=False)
            (A): ReLU()
          )
        )
        (1): Convolution(
          (conv): Conv2d(64, 64, kernel_size=(3, 3), stride=(1, 1), padding=(1, 1))
          (adn): ADN(
            (N): BatchNorm2d(64, eps=1e-05, momentum=0.1, affine=True, track_running_stats=True)
            (D): Dropout(p=0.0, inplace=False)
            (A): ReLU()
          )
        )
      )
    )
    (1): AttentionLayer(
      (attention): AttentionBlock(
        (W_g): Sequential(
          (0): Convolution(
            (conv): Conv2d(64, 32, kernel_size=(1, 1), stride=(1, 1))
          )
          (1): BatchNorm2d(32, eps=1e-05, momentum=0.1, affine=True, track_running_stats=True)
        )
        (W_x): Sequential(
          (0): Convolution(
            (conv): Conv2d(64, 32, kernel_size=(1, 1), stride=(1, 1))
          )
          (1): BatchNorm2d(32, eps=1e-05, momentum=0.1, affine=True, track_running_stats=True)
        )
        (psi): Sequential(
          (0): Convolution(
            (conv): Conv2d(32, 1, kernel_size=(1, 1), stride=(1, 1))
          )
          (1): BatchNorm2d(1, eps=1e-05, momentum=0.1, affine=True, track_running_stats=True)
          (2): Sigmoid()
        )
        (relu): ReLU()
      )
      (upconv): UpConv(
        (up): Convolution(
          (conv): ConvTranspose2d(128, 64, kernel_size=(3, 3), stride=(2, 2), padding=(1, 1), output_padding=(1, 1))
          (adn): ADN(
            (N): BatchNorm2d(64, eps=1e-05, momentum=0.1, affine=True, track_running_stats=True)
            (D): Dropout(p=0.0, inplace=False)
            (A): ReLU()
          )
        )
      )
      (merge): Convolution(
        (conv): Conv2d(128, 64, kernel_size=(3, 3), stride=(1, 1), padding=(1, 1))
        (adn): ADN(
          (N): InstanceNorm2d(64, eps=1e-05, momentum=0.1, affine=False, track_running_stats=False)
          (D): Dropout(p=0.0, inplace=False)
          (A): PReLU(num_parameters=1)
        )
      )
      (submodule): Sequential(
        (0): ConvBlock(
          (conv): Sequential(
            (0): Convolution(
              (conv): Conv2d(64, 128, kernel_size=(3, 3), stride=(2, 2), padding=(1, 1))
              (adn): ADN(
                (N): BatchNorm2d(128, eps=1e-05, momentum=0.1, affine=True, track_running_stats=True)
                (D): Dropout(p=0.0, inplace=False)
                (A): ReLU()
              )
            )
            (1): Convolution(
              (conv): Conv2d(128, 128, kernel_size=(3, 3), stride=(1, 1), padding=(1, 1))
              (adn): ADN(
                (N): BatchNorm2d(128, eps=1e-05, momentum=0.1, affine=True, track_running_stats=True)
                (D): Dropout(p=0.0, inplace=False)
                (A): ReLU()
              )
            )
          )
        )
        (1): AttentionLayer(
          (attention): AttentionBlock(
            (W_g): Sequential(
              (0): Convolution(
                (conv): Conv2d(128, 64, kernel_size=(1, 1), stride=(1, 1))
              )
              (1): BatchNorm2d(64, eps=1e-05, momentum=0.1, affine=True, track_running_stats=True)
            )
            (W_x): Sequential(
              (0): Convolution(
                (conv): Conv2d(128, 64, kernel_size=(1, 1), stride=(1, 1))
              )
              (1): BatchNorm2d(64, eps=1e-05, momentum=0.1, affine=True, track_running_stats=True)
            )
            (psi): Sequential(
              (0): Convolution(
                (conv): Conv2d(64, 1, kernel_size=(1, 1), stride=(1, 1))
              )
              (1): BatchNorm2d(1, eps=1e-05, momentum=0.1, affine=True, track_running_stats=True)
              (2): Sigmoid()
            )
            (relu): ReLU()
          )
          (upconv): UpConv(
            (up): Convolution(
              (conv): ConvTranspose2d(256, 128, kernel_size=(3, 3), stride=(2, 2), padding=(1, 1), output_padding=(1, 1))
              (adn): ADN(
                (N): BatchNorm2d(128, eps=1e-05, momentum=0.1, affine=True, track_running_stats=True)
                (D): Dropout(p=0.0, inplace=False)
                (A): ReLU()
              )
            )
          )
          (merge): Convolution(
            (conv): Conv2d(256, 128, kernel_size=(3, 3), stride=(1, 1), padding=(1, 1))
            (adn): ADN(
              (N): InstanceNorm2d(128, eps=1e-05, momentum=0.1, affine=False, track_running_stats=False)
              (D): Dropout(p=0.0, inplace=False)
              (A): PReLU(num_parameters=1)
            )
          )
          (submodule): ConvBlock(
            (conv): Sequential(
              (0): Convolution(
                (conv): Conv2d(128, 256, kernel_size=(3, 3), stride=(2, 2), padding=(1, 1))
                (adn): ADN(
                  (N): BatchNorm2d(256, eps=1e-05, momentum=0.1, affine=True, track_running_stats=True)
                  (D): Dropout(p=0.0, inplace=False)
                  (A): ReLU()
                )
              )
              (1): Convolution(
                (conv): Conv2d(256, 256, kernel_size=(3, 3), stride=(1, 1), padding=(1, 1))
                (adn): ADN(
                  (N): BatchNorm2d(256, eps=1e-05, momentum=0.1, affine=True, track_running_stats=True)
                  (D): Dropout(p=0.0, inplace=False)
                  (A): ReLU()
                )
              )
            )
          )
        )
      )
    )
    (2): Convolution(
      (conv): Conv2d(64, 1, kernel_size=(1, 1), stride=(1, 1))
    )
  )
)",validation/AttentionUnet/AttentionUnet_8_2022-08-18.png,0.03497287258505821
2022-08-18,"AttentionUnet(
  (model): Sequential(
    (0): ConvBlock(
      (conv): Sequential(
        (0): Convolution(
          (conv): Conv2d(1, 64, kernel_size=(3, 3), stride=(1, 1), padding=(1, 1))
          (adn): ADN(
            (N): BatchNorm2d(64, eps=1e-05, momentum=0.1, affine=True, track_running_stats=True)
            (D): Dropout(p=0.0, inplace=False)
            (A): ReLU()
          )
        )
        (1): Convolution(
          (conv): Conv2d(64, 64, kernel_size=(3, 3), stride=(1, 1), padding=(1, 1))
          (adn): ADN(
            (N): BatchNorm2d(64, eps=1e-05, momentum=0.1, affine=True, track_running_stats=True)
            (D): Dropout(p=0.0, inplace=False)
            (A): ReLU()
          )
        )
      )
    )
    (1): AttentionLayer(
      (attention): AttentionBlock(
        (W_g): Sequential(
          (0): Convolution(
            (conv): Conv2d(64, 32, kernel_size=(1, 1), stride=(1, 1))
          )
          (1): BatchNorm2d(32, eps=1e-05, momentum=0.1, affine=True, track_running_stats=True)
        )
        (W_x): Sequential(
          (0): Convolution(
            (conv): Conv2d(64, 32, kernel_size=(1, 1), stride=(1, 1))
          )
          (1): BatchNorm2d(32, eps=1e-05, momentum=0.1, affine=True, track_running_stats=True)
        )
        (psi): Sequential(
          (0): Convolution(
            (conv): Conv2d(32, 1, kernel_size=(1, 1), stride=(1, 1))
          )
          (1): BatchNorm2d(1, eps=1e-05, momentum=0.1, affine=True, track_running_stats=True)
          (2): Sigmoid()
        )
        (relu): ReLU()
      )
      (upconv): UpConv(
        (up): Convolution(
          (conv): ConvTranspose2d(128, 64, kernel_size=(3, 3), stride=(2, 2), padding=(1, 1), output_padding=(1, 1))
          (adn): ADN(
            (N): BatchNorm2d(64, eps=1e-05, momentum=0.1, affine=True, track_running_stats=True)
            (D): Dropout(p=0.0, inplace=False)
            (A): ReLU()
          )
        )
      )
      (merge): Convolution(
        (conv): Conv2d(128, 64, kernel_size=(3, 3), stride=(1, 1), padding=(1, 1))
        (adn): ADN(
          (N): InstanceNorm2d(64, eps=1e-05, momentum=0.1, affine=False, track_running_stats=False)
          (D): Dropout(p=0.0, inplace=False)
          (A): PReLU(num_parameters=1)
        )
      )
      (submodule): Sequential(
        (0): ConvBlock(
          (conv): Sequential(
            (0): Convolution(
              (conv): Conv2d(64, 128, kernel_size=(3, 3), stride=(2, 2), padding=(1, 1))
              (adn): ADN(
                (N): BatchNorm2d(128, eps=1e-05, momentum=0.1, affine=True, track_running_stats=True)
                (D): Dropout(p=0.0, inplace=False)
                (A): ReLU()
              )
            )
            (1): Convolution(
              (conv): Conv2d(128, 128, kernel_size=(3, 3), stride=(1, 1), padding=(1, 1))
              (adn): ADN(
                (N): BatchNorm2d(128, eps=1e-05, momentum=0.1, affine=True, track_running_stats=True)
                (D): Dropout(p=0.0, inplace=False)
                (A): ReLU()
              )
            )
          )
        )
        (1): AttentionLayer(
          (attention): AttentionBlock(
            (W_g): Sequential(
              (0): Convolution(
                (conv): Conv2d(128, 64, kernel_size=(1, 1), stride=(1, 1))
              )
              (1): BatchNorm2d(64, eps=1e-05, momentum=0.1, affine=True, track_running_stats=True)
            )
            (W_x): Sequential(
              (0): Convolution(
                (conv): Conv2d(128, 64, kernel_size=(1, 1), stride=(1, 1))
              )
              (1): BatchNorm2d(64, eps=1e-05, momentum=0.1, affine=True, track_running_stats=True)
            )
            (psi): Sequential(
              (0): Convolution(
                (conv): Conv2d(64, 1, kernel_size=(1, 1), stride=(1, 1))
              )
              (1): BatchNorm2d(1, eps=1e-05, momentum=0.1, affine=True, track_running_stats=True)
              (2): Sigmoid()
            )
            (relu): ReLU()
          )
          (upconv): UpConv(
            (up): Convolution(
              (conv): ConvTranspose2d(256, 128, kernel_size=(3, 3), stride=(2, 2), padding=(1, 1), output_padding=(1, 1))
              (adn): ADN(
                (N): BatchNorm2d(128, eps=1e-05, momentum=0.1, affine=True, track_running_stats=True)
                (D): Dropout(p=0.0, inplace=False)
                (A): ReLU()
              )
            )
          )
          (merge): Convolution(
            (conv): Conv2d(256, 128, kernel_size=(3, 3), stride=(1, 1), padding=(1, 1))
            (adn): ADN(
              (N): InstanceNorm2d(128, eps=1e-05, momentum=0.1, affine=False, track_running_stats=False)
              (D): Dropout(p=0.0, inplace=False)
              (A): PReLU(num_parameters=1)
            )
          )
          (submodule): ConvBlock(
            (conv): Sequential(
              (0): Convolution(
                (conv): Conv2d(128, 256, kernel_size=(3, 3), stride=(2, 2), padding=(1, 1))
                (adn): ADN(
                  (N): BatchNorm2d(256, eps=1e-05, momentum=0.1, affine=True, track_running_stats=True)
                  (D): Dropout(p=0.0, inplace=False)
                  (A): ReLU()
                )
              )
              (1): Convolution(
                (conv): Conv2d(256, 256, kernel_size=(3, 3), stride=(1, 1), padding=(1, 1))
                (adn): ADN(
                  (N): BatchNorm2d(256, eps=1e-05, momentum=0.1, affine=True, track_running_stats=True)
                  (D): Dropout(p=0.0, inplace=False)
                  (A): ReLU()
                )
              )
            )
          )
        )
      )
    )
    (2): Convolution(
      (conv): Conv2d(64, 1, kernel_size=(1, 1), stride=(1, 1))
    )
  )
)",validation/AttentionUnet/AttentionUnet_9_2022-08-18.png,0.0005233822739683092
2022-08-18,"AttentionUnet(
  (model): Sequential(
    (0): ConvBlock(
      (conv): Sequential(
        (0): Convolution(
          (conv): Conv2d(1, 64, kernel_size=(3, 3), stride=(1, 1), padding=(1, 1))
          (adn): ADN(
            (N): BatchNorm2d(64, eps=1e-05, momentum=0.1, affine=True, track_running_stats=True)
            (D): Dropout(p=0.0, inplace=False)
            (A): ReLU()
          )
        )
        (1): Convolution(
          (conv): Conv2d(64, 64, kernel_size=(3, 3), stride=(1, 1), padding=(1, 1))
          (adn): ADN(
            (N): BatchNorm2d(64, eps=1e-05, momentum=0.1, affine=True, track_running_stats=True)
            (D): Dropout(p=0.0, inplace=False)
            (A): ReLU()
          )
        )
      )
    )
    (1): AttentionLayer(
      (attention): AttentionBlock(
        (W_g): Sequential(
          (0): Convolution(
            (conv): Conv2d(64, 32, kernel_size=(1, 1), stride=(1, 1))
          )
          (1): BatchNorm2d(32, eps=1e-05, momentum=0.1, affine=True, track_running_stats=True)
        )
        (W_x): Sequential(
          (0): Convolution(
            (conv): Conv2d(64, 32, kernel_size=(1, 1), stride=(1, 1))
          )
          (1): BatchNorm2d(32, eps=1e-05, momentum=0.1, affine=True, track_running_stats=True)
        )
        (psi): Sequential(
          (0): Convolution(
            (conv): Conv2d(32, 1, kernel_size=(1, 1), stride=(1, 1))
          )
          (1): BatchNorm2d(1, eps=1e-05, momentum=0.1, affine=True, track_running_stats=True)
          (2): Sigmoid()
        )
        (relu): ReLU()
      )
      (upconv): UpConv(
        (up): Convolution(
          (conv): ConvTranspose2d(128, 64, kernel_size=(3, 3), stride=(2, 2), padding=(1, 1), output_padding=(1, 1))
          (adn): ADN(
            (N): BatchNorm2d(64, eps=1e-05, momentum=0.1, affine=True, track_running_stats=True)
            (D): Dropout(p=0.0, inplace=False)
            (A): ReLU()
          )
        )
      )
      (merge): Convolution(
        (conv): Conv2d(128, 64, kernel_size=(3, 3), stride=(1, 1), padding=(1, 1))
        (adn): ADN(
          (N): InstanceNorm2d(64, eps=1e-05, momentum=0.1, affine=False, track_running_stats=False)
          (D): Dropout(p=0.0, inplace=False)
          (A): PReLU(num_parameters=1)
        )
      )
      (submodule): Sequential(
        (0): ConvBlock(
          (conv): Sequential(
            (0): Convolution(
              (conv): Conv2d(64, 128, kernel_size=(3, 3), stride=(2, 2), padding=(1, 1))
              (adn): ADN(
                (N): BatchNorm2d(128, eps=1e-05, momentum=0.1, affine=True, track_running_stats=True)
                (D): Dropout(p=0.0, inplace=False)
                (A): ReLU()
              )
            )
            (1): Convolution(
              (conv): Conv2d(128, 128, kernel_size=(3, 3), stride=(1, 1), padding=(1, 1))
              (adn): ADN(
                (N): BatchNorm2d(128, eps=1e-05, momentum=0.1, affine=True, track_running_stats=True)
                (D): Dropout(p=0.0, inplace=False)
                (A): ReLU()
              )
            )
          )
        )
        (1): AttentionLayer(
          (attention): AttentionBlock(
            (W_g): Sequential(
              (0): Convolution(
                (conv): Conv2d(128, 64, kernel_size=(1, 1), stride=(1, 1))
              )
              (1): BatchNorm2d(64, eps=1e-05, momentum=0.1, affine=True, track_running_stats=True)
            )
            (W_x): Sequential(
              (0): Convolution(
                (conv): Conv2d(128, 64, kernel_size=(1, 1), stride=(1, 1))
              )
              (1): BatchNorm2d(64, eps=1e-05, momentum=0.1, affine=True, track_running_stats=True)
            )
            (psi): Sequential(
              (0): Convolution(
                (conv): Conv2d(64, 1, kernel_size=(1, 1), stride=(1, 1))
              )
              (1): BatchNorm2d(1, eps=1e-05, momentum=0.1, affine=True, track_running_stats=True)
              (2): Sigmoid()
            )
            (relu): ReLU()
          )
          (upconv): UpConv(
            (up): Convolution(
              (conv): ConvTranspose2d(256, 128, kernel_size=(3, 3), stride=(2, 2), padding=(1, 1), output_padding=(1, 1))
              (adn): ADN(
                (N): BatchNorm2d(128, eps=1e-05, momentum=0.1, affine=True, track_running_stats=True)
                (D): Dropout(p=0.0, inplace=False)
                (A): ReLU()
              )
            )
          )
          (merge): Convolution(
            (conv): Conv2d(256, 128, kernel_size=(3, 3), stride=(1, 1), padding=(1, 1))
            (adn): ADN(
              (N): InstanceNorm2d(128, eps=1e-05, momentum=0.1, affine=False, track_running_stats=False)
              (D): Dropout(p=0.0, inplace=False)
              (A): PReLU(num_parameters=1)
            )
          )
          (submodule): ConvBlock(
            (conv): Sequential(
              (0): Convolution(
                (conv): Conv2d(128, 256, kernel_size=(3, 3), stride=(2, 2), padding=(1, 1))
                (adn): ADN(
                  (N): BatchNorm2d(256, eps=1e-05, momentum=0.1, affine=True, track_running_stats=True)
                  (D): Dropout(p=0.0, inplace=False)
                  (A): ReLU()
                )
              )
              (1): Convolution(
                (conv): Conv2d(256, 256, kernel_size=(3, 3), stride=(1, 1), padding=(1, 1))
                (adn): ADN(
                  (N): BatchNorm2d(256, eps=1e-05, momentum=0.1, affine=True, track_running_stats=True)
                  (D): Dropout(p=0.0, inplace=False)
                  (A): ReLU()
                )
              )
            )
          )
        )
      )
    )
    (2): Convolution(
      (conv): Conv2d(64, 1, kernel_size=(1, 1), stride=(1, 1))
    )
  )
)",validation/AttentionUnet/AttentionUnet_10_2022-08-18.png,0.12081929296255112
2022-08-18,"AttentionUnet(
  (model): Sequential(
    (0): ConvBlock(
      (conv): Sequential(
        (0): Convolution(
          (conv): Conv2d(1, 64, kernel_size=(3, 3), stride=(1, 1), padding=(1, 1))
          (adn): ADN(
            (N): BatchNorm2d(64, eps=1e-05, momentum=0.1, affine=True, track_running_stats=True)
            (D): Dropout(p=0.0, inplace=False)
            (A): ReLU()
          )
        )
        (1): Convolution(
          (conv): Conv2d(64, 64, kernel_size=(3, 3), stride=(1, 1), padding=(1, 1))
          (adn): ADN(
            (N): BatchNorm2d(64, eps=1e-05, momentum=0.1, affine=True, track_running_stats=True)
            (D): Dropout(p=0.0, inplace=False)
            (A): ReLU()
          )
        )
      )
    )
    (1): AttentionLayer(
      (attention): AttentionBlock(
        (W_g): Sequential(
          (0): Convolution(
            (conv): Conv2d(64, 32, kernel_size=(1, 1), stride=(1, 1))
          )
          (1): BatchNorm2d(32, eps=1e-05, momentum=0.1, affine=True, track_running_stats=True)
        )
        (W_x): Sequential(
          (0): Convolution(
            (conv): Conv2d(64, 32, kernel_size=(1, 1), stride=(1, 1))
          )
          (1): BatchNorm2d(32, eps=1e-05, momentum=0.1, affine=True, track_running_stats=True)
        )
        (psi): Sequential(
          (0): Convolution(
            (conv): Conv2d(32, 1, kernel_size=(1, 1), stride=(1, 1))
          )
          (1): BatchNorm2d(1, eps=1e-05, momentum=0.1, affine=True, track_running_stats=True)
          (2): Sigmoid()
        )
        (relu): ReLU()
      )
      (upconv): UpConv(
        (up): Convolution(
          (conv): ConvTranspose2d(128, 64, kernel_size=(3, 3), stride=(2, 2), padding=(1, 1), output_padding=(1, 1))
          (adn): ADN(
            (N): BatchNorm2d(64, eps=1e-05, momentum=0.1, affine=True, track_running_stats=True)
            (D): Dropout(p=0.0, inplace=False)
            (A): ReLU()
          )
        )
      )
      (merge): Convolution(
        (conv): Conv2d(128, 64, kernel_size=(3, 3), stride=(1, 1), padding=(1, 1))
        (adn): ADN(
          (N): InstanceNorm2d(64, eps=1e-05, momentum=0.1, affine=False, track_running_stats=False)
          (D): Dropout(p=0.0, inplace=False)
          (A): PReLU(num_parameters=1)
        )
      )
      (submodule): Sequential(
        (0): ConvBlock(
          (conv): Sequential(
            (0): Convolution(
              (conv): Conv2d(64, 128, kernel_size=(3, 3), stride=(2, 2), padding=(1, 1))
              (adn): ADN(
                (N): BatchNorm2d(128, eps=1e-05, momentum=0.1, affine=True, track_running_stats=True)
                (D): Dropout(p=0.0, inplace=False)
                (A): ReLU()
              )
            )
            (1): Convolution(
              (conv): Conv2d(128, 128, kernel_size=(3, 3), stride=(1, 1), padding=(1, 1))
              (adn): ADN(
                (N): BatchNorm2d(128, eps=1e-05, momentum=0.1, affine=True, track_running_stats=True)
                (D): Dropout(p=0.0, inplace=False)
                (A): ReLU()
              )
            )
          )
        )
        (1): AttentionLayer(
          (attention): AttentionBlock(
            (W_g): Sequential(
              (0): Convolution(
                (conv): Conv2d(128, 64, kernel_size=(1, 1), stride=(1, 1))
              )
              (1): BatchNorm2d(64, eps=1e-05, momentum=0.1, affine=True, track_running_stats=True)
            )
            (W_x): Sequential(
              (0): Convolution(
                (conv): Conv2d(128, 64, kernel_size=(1, 1), stride=(1, 1))
              )
              (1): BatchNorm2d(64, eps=1e-05, momentum=0.1, affine=True, track_running_stats=True)
            )
            (psi): Sequential(
              (0): Convolution(
                (conv): Conv2d(64, 1, kernel_size=(1, 1), stride=(1, 1))
              )
              (1): BatchNorm2d(1, eps=1e-05, momentum=0.1, affine=True, track_running_stats=True)
              (2): Sigmoid()
            )
            (relu): ReLU()
          )
          (upconv): UpConv(
            (up): Convolution(
              (conv): ConvTranspose2d(256, 128, kernel_size=(3, 3), stride=(2, 2), padding=(1, 1), output_padding=(1, 1))
              (adn): ADN(
                (N): BatchNorm2d(128, eps=1e-05, momentum=0.1, affine=True, track_running_stats=True)
                (D): Dropout(p=0.0, inplace=False)
                (A): ReLU()
              )
            )
          )
          (merge): Convolution(
            (conv): Conv2d(256, 128, kernel_size=(3, 3), stride=(1, 1), padding=(1, 1))
            (adn): ADN(
              (N): InstanceNorm2d(128, eps=1e-05, momentum=0.1, affine=False, track_running_stats=False)
              (D): Dropout(p=0.0, inplace=False)
              (A): PReLU(num_parameters=1)
            )
          )
          (submodule): ConvBlock(
            (conv): Sequential(
              (0): Convolution(
                (conv): Conv2d(128, 256, kernel_size=(3, 3), stride=(2, 2), padding=(1, 1))
                (adn): ADN(
                  (N): BatchNorm2d(256, eps=1e-05, momentum=0.1, affine=True, track_running_stats=True)
                  (D): Dropout(p=0.0, inplace=False)
                  (A): ReLU()
                )
              )
              (1): Convolution(
                (conv): Conv2d(256, 256, kernel_size=(3, 3), stride=(1, 1), padding=(1, 1))
                (adn): ADN(
                  (N): BatchNorm2d(256, eps=1e-05, momentum=0.1, affine=True, track_running_stats=True)
                  (D): Dropout(p=0.0, inplace=False)
                  (A): ReLU()
                )
              )
            )
          )
        )
      )
    )
    (2): Convolution(
      (conv): Conv2d(64, 1, kernel_size=(1, 1), stride=(1, 1))
    )
  )
)",validation/AttentionUnet/AttentionUnet_11_2022-08-18.png,6.243689159440846e-12
2022-08-18,"AttentionUnet(
  (model): Sequential(
    (0): ConvBlock(
      (conv): Sequential(
        (0): Convolution(
          (conv): Conv2d(1, 64, kernel_size=(3, 3), stride=(1, 1), padding=(1, 1))
          (adn): ADN(
            (N): BatchNorm2d(64, eps=1e-05, momentum=0.1, affine=True, track_running_stats=True)
            (D): Dropout(p=0.0, inplace=False)
            (A): ReLU()
          )
        )
        (1): Convolution(
          (conv): Conv2d(64, 64, kernel_size=(3, 3), stride=(1, 1), padding=(1, 1))
          (adn): ADN(
            (N): BatchNorm2d(64, eps=1e-05, momentum=0.1, affine=True, track_running_stats=True)
            (D): Dropout(p=0.0, inplace=False)
            (A): ReLU()
          )
        )
      )
    )
    (1): AttentionLayer(
      (attention): AttentionBlock(
        (W_g): Sequential(
          (0): Convolution(
            (conv): Conv2d(64, 32, kernel_size=(1, 1), stride=(1, 1))
          )
          (1): BatchNorm2d(32, eps=1e-05, momentum=0.1, affine=True, track_running_stats=True)
        )
        (W_x): Sequential(
          (0): Convolution(
            (conv): Conv2d(64, 32, kernel_size=(1, 1), stride=(1, 1))
          )
          (1): BatchNorm2d(32, eps=1e-05, momentum=0.1, affine=True, track_running_stats=True)
        )
        (psi): Sequential(
          (0): Convolution(
            (conv): Conv2d(32, 1, kernel_size=(1, 1), stride=(1, 1))
          )
          (1): BatchNorm2d(1, eps=1e-05, momentum=0.1, affine=True, track_running_stats=True)
          (2): Sigmoid()
        )
        (relu): ReLU()
      )
      (upconv): UpConv(
        (up): Convolution(
          (conv): ConvTranspose2d(128, 64, kernel_size=(3, 3), stride=(2, 2), padding=(1, 1), output_padding=(1, 1))
          (adn): ADN(
            (N): BatchNorm2d(64, eps=1e-05, momentum=0.1, affine=True, track_running_stats=True)
            (D): Dropout(p=0.0, inplace=False)
            (A): ReLU()
          )
        )
      )
      (merge): Convolution(
        (conv): Conv2d(128, 64, kernel_size=(3, 3), stride=(1, 1), padding=(1, 1))
        (adn): ADN(
          (N): InstanceNorm2d(64, eps=1e-05, momentum=0.1, affine=False, track_running_stats=False)
          (D): Dropout(p=0.0, inplace=False)
          (A): PReLU(num_parameters=1)
        )
      )
      (submodule): Sequential(
        (0): ConvBlock(
          (conv): Sequential(
            (0): Convolution(
              (conv): Conv2d(64, 128, kernel_size=(3, 3), stride=(2, 2), padding=(1, 1))
              (adn): ADN(
                (N): BatchNorm2d(128, eps=1e-05, momentum=0.1, affine=True, track_running_stats=True)
                (D): Dropout(p=0.0, inplace=False)
                (A): ReLU()
              )
            )
            (1): Convolution(
              (conv): Conv2d(128, 128, kernel_size=(3, 3), stride=(1, 1), padding=(1, 1))
              (adn): ADN(
                (N): BatchNorm2d(128, eps=1e-05, momentum=0.1, affine=True, track_running_stats=True)
                (D): Dropout(p=0.0, inplace=False)
                (A): ReLU()
              )
            )
          )
        )
        (1): AttentionLayer(
          (attention): AttentionBlock(
            (W_g): Sequential(
              (0): Convolution(
                (conv): Conv2d(128, 64, kernel_size=(1, 1), stride=(1, 1))
              )
              (1): BatchNorm2d(64, eps=1e-05, momentum=0.1, affine=True, track_running_stats=True)
            )
            (W_x): Sequential(
              (0): Convolution(
                (conv): Conv2d(128, 64, kernel_size=(1, 1), stride=(1, 1))
              )
              (1): BatchNorm2d(64, eps=1e-05, momentum=0.1, affine=True, track_running_stats=True)
            )
            (psi): Sequential(
              (0): Convolution(
                (conv): Conv2d(64, 1, kernel_size=(1, 1), stride=(1, 1))
              )
              (1): BatchNorm2d(1, eps=1e-05, momentum=0.1, affine=True, track_running_stats=True)
              (2): Sigmoid()
            )
            (relu): ReLU()
          )
          (upconv): UpConv(
            (up): Convolution(
              (conv): ConvTranspose2d(256, 128, kernel_size=(3, 3), stride=(2, 2), padding=(1, 1), output_padding=(1, 1))
              (adn): ADN(
                (N): BatchNorm2d(128, eps=1e-05, momentum=0.1, affine=True, track_running_stats=True)
                (D): Dropout(p=0.0, inplace=False)
                (A): ReLU()
              )
            )
          )
          (merge): Convolution(
            (conv): Conv2d(256, 128, kernel_size=(3, 3), stride=(1, 1), padding=(1, 1))
            (adn): ADN(
              (N): InstanceNorm2d(128, eps=1e-05, momentum=0.1, affine=False, track_running_stats=False)
              (D): Dropout(p=0.0, inplace=False)
              (A): PReLU(num_parameters=1)
            )
          )
          (submodule): ConvBlock(
            (conv): Sequential(
              (0): Convolution(
                (conv): Conv2d(128, 256, kernel_size=(3, 3), stride=(2, 2), padding=(1, 1))
                (adn): ADN(
                  (N): BatchNorm2d(256, eps=1e-05, momentum=0.1, affine=True, track_running_stats=True)
                  (D): Dropout(p=0.0, inplace=False)
                  (A): ReLU()
                )
              )
              (1): Convolution(
                (conv): Conv2d(256, 256, kernel_size=(3, 3), stride=(1, 1), padding=(1, 1))
                (adn): ADN(
                  (N): BatchNorm2d(256, eps=1e-05, momentum=0.1, affine=True, track_running_stats=True)
                  (D): Dropout(p=0.0, inplace=False)
                  (A): ReLU()
                )
              )
            )
          )
        )
      )
    )
    (2): Convolution(
      (conv): Conv2d(64, 1, kernel_size=(1, 1), stride=(1, 1))
    )
  )
)",validation/AttentionUnet/AttentionUnet_12_2022-08-18.png,0.0
2022-08-18,"AttentionUnet(
  (model): Sequential(
    (0): ConvBlock(
      (conv): Sequential(
        (0): Convolution(
          (conv): Conv2d(1, 64, kernel_size=(3, 3), stride=(1, 1), padding=(1, 1))
          (adn): ADN(
            (N): BatchNorm2d(64, eps=1e-05, momentum=0.1, affine=True, track_running_stats=True)
            (D): Dropout(p=0.0, inplace=False)
            (A): ReLU()
          )
        )
        (1): Convolution(
          (conv): Conv2d(64, 64, kernel_size=(3, 3), stride=(1, 1), padding=(1, 1))
          (adn): ADN(
            (N): BatchNorm2d(64, eps=1e-05, momentum=0.1, affine=True, track_running_stats=True)
            (D): Dropout(p=0.0, inplace=False)
            (A): ReLU()
          )
        )
      )
    )
    (1): AttentionLayer(
      (attention): AttentionBlock(
        (W_g): Sequential(
          (0): Convolution(
            (conv): Conv2d(64, 32, kernel_size=(1, 1), stride=(1, 1))
          )
          (1): BatchNorm2d(32, eps=1e-05, momentum=0.1, affine=True, track_running_stats=True)
        )
        (W_x): Sequential(
          (0): Convolution(
            (conv): Conv2d(64, 32, kernel_size=(1, 1), stride=(1, 1))
          )
          (1): BatchNorm2d(32, eps=1e-05, momentum=0.1, affine=True, track_running_stats=True)
        )
        (psi): Sequential(
          (0): Convolution(
            (conv): Conv2d(32, 1, kernel_size=(1, 1), stride=(1, 1))
          )
          (1): BatchNorm2d(1, eps=1e-05, momentum=0.1, affine=True, track_running_stats=True)
          (2): Sigmoid()
        )
        (relu): ReLU()
      )
      (upconv): UpConv(
        (up): Convolution(
          (conv): ConvTranspose2d(128, 64, kernel_size=(3, 3), stride=(2, 2), padding=(1, 1), output_padding=(1, 1))
          (adn): ADN(
            (N): BatchNorm2d(64, eps=1e-05, momentum=0.1, affine=True, track_running_stats=True)
            (D): Dropout(p=0.0, inplace=False)
            (A): ReLU()
          )
        )
      )
      (merge): Convolution(
        (conv): Conv2d(128, 64, kernel_size=(3, 3), stride=(1, 1), padding=(1, 1))
        (adn): ADN(
          (N): InstanceNorm2d(64, eps=1e-05, momentum=0.1, affine=False, track_running_stats=False)
          (D): Dropout(p=0.0, inplace=False)
          (A): PReLU(num_parameters=1)
        )
      )
      (submodule): Sequential(
        (0): ConvBlock(
          (conv): Sequential(
            (0): Convolution(
              (conv): Conv2d(64, 128, kernel_size=(3, 3), stride=(2, 2), padding=(1, 1))
              (adn): ADN(
                (N): BatchNorm2d(128, eps=1e-05, momentum=0.1, affine=True, track_running_stats=True)
                (D): Dropout(p=0.0, inplace=False)
                (A): ReLU()
              )
            )
            (1): Convolution(
              (conv): Conv2d(128, 128, kernel_size=(3, 3), stride=(1, 1), padding=(1, 1))
              (adn): ADN(
                (N): BatchNorm2d(128, eps=1e-05, momentum=0.1, affine=True, track_running_stats=True)
                (D): Dropout(p=0.0, inplace=False)
                (A): ReLU()
              )
            )
          )
        )
        (1): AttentionLayer(
          (attention): AttentionBlock(
            (W_g): Sequential(
              (0): Convolution(
                (conv): Conv2d(128, 64, kernel_size=(1, 1), stride=(1, 1))
              )
              (1): BatchNorm2d(64, eps=1e-05, momentum=0.1, affine=True, track_running_stats=True)
            )
            (W_x): Sequential(
              (0): Convolution(
                (conv): Conv2d(128, 64, kernel_size=(1, 1), stride=(1, 1))
              )
              (1): BatchNorm2d(64, eps=1e-05, momentum=0.1, affine=True, track_running_stats=True)
            )
            (psi): Sequential(
              (0): Convolution(
                (conv): Conv2d(64, 1, kernel_size=(1, 1), stride=(1, 1))
              )
              (1): BatchNorm2d(1, eps=1e-05, momentum=0.1, affine=True, track_running_stats=True)
              (2): Sigmoid()
            )
            (relu): ReLU()
          )
          (upconv): UpConv(
            (up): Convolution(
              (conv): ConvTranspose2d(256, 128, kernel_size=(3, 3), stride=(2, 2), padding=(1, 1), output_padding=(1, 1))
              (adn): ADN(
                (N): BatchNorm2d(128, eps=1e-05, momentum=0.1, affine=True, track_running_stats=True)
                (D): Dropout(p=0.0, inplace=False)
                (A): ReLU()
              )
            )
          )
          (merge): Convolution(
            (conv): Conv2d(256, 128, kernel_size=(3, 3), stride=(1, 1), padding=(1, 1))
            (adn): ADN(
              (N): InstanceNorm2d(128, eps=1e-05, momentum=0.1, affine=False, track_running_stats=False)
              (D): Dropout(p=0.0, inplace=False)
              (A): PReLU(num_parameters=1)
            )
          )
          (submodule): ConvBlock(
            (conv): Sequential(
              (0): Convolution(
                (conv): Conv2d(128, 256, kernel_size=(3, 3), stride=(2, 2), padding=(1, 1))
                (adn): ADN(
                  (N): BatchNorm2d(256, eps=1e-05, momentum=0.1, affine=True, track_running_stats=True)
                  (D): Dropout(p=0.0, inplace=False)
                  (A): ReLU()
                )
              )
              (1): Convolution(
                (conv): Conv2d(256, 256, kernel_size=(3, 3), stride=(1, 1), padding=(1, 1))
                (adn): ADN(
                  (N): BatchNorm2d(256, eps=1e-05, momentum=0.1, affine=True, track_running_stats=True)
                  (D): Dropout(p=0.0, inplace=False)
                  (A): ReLU()
                )
              )
            )
          )
        )
      )
    )
    (2): Convolution(
      (conv): Conv2d(64, 1, kernel_size=(1, 1), stride=(1, 1))
    )
  )
)",validation/AttentionUnet/AttentionUnet_13_2022-08-18.png,0.5911387801170349
2022-08-18,"AttentionUnet(
  (model): Sequential(
    (0): ConvBlock(
      (conv): Sequential(
        (0): Convolution(
          (conv): Conv2d(1, 64, kernel_size=(3, 3), stride=(1, 1), padding=(1, 1))
          (adn): ADN(
            (N): BatchNorm2d(64, eps=1e-05, momentum=0.1, affine=True, track_running_stats=True)
            (D): Dropout(p=0.0, inplace=False)
            (A): ReLU()
          )
        )
        (1): Convolution(
          (conv): Conv2d(64, 64, kernel_size=(3, 3), stride=(1, 1), padding=(1, 1))
          (adn): ADN(
            (N): BatchNorm2d(64, eps=1e-05, momentum=0.1, affine=True, track_running_stats=True)
            (D): Dropout(p=0.0, inplace=False)
            (A): ReLU()
          )
        )
      )
    )
    (1): AttentionLayer(
      (attention): AttentionBlock(
        (W_g): Sequential(
          (0): Convolution(
            (conv): Conv2d(64, 32, kernel_size=(1, 1), stride=(1, 1))
          )
          (1): BatchNorm2d(32, eps=1e-05, momentum=0.1, affine=True, track_running_stats=True)
        )
        (W_x): Sequential(
          (0): Convolution(
            (conv): Conv2d(64, 32, kernel_size=(1, 1), stride=(1, 1))
          )
          (1): BatchNorm2d(32, eps=1e-05, momentum=0.1, affine=True, track_running_stats=True)
        )
        (psi): Sequential(
          (0): Convolution(
            (conv): Conv2d(32, 1, kernel_size=(1, 1), stride=(1, 1))
          )
          (1): BatchNorm2d(1, eps=1e-05, momentum=0.1, affine=True, track_running_stats=True)
          (2): Sigmoid()
        )
        (relu): ReLU()
      )
      (upconv): UpConv(
        (up): Convolution(
          (conv): ConvTranspose2d(128, 64, kernel_size=(3, 3), stride=(2, 2), padding=(1, 1), output_padding=(1, 1))
          (adn): ADN(
            (N): BatchNorm2d(64, eps=1e-05, momentum=0.1, affine=True, track_running_stats=True)
            (D): Dropout(p=0.0, inplace=False)
            (A): ReLU()
          )
        )
      )
      (merge): Convolution(
        (conv): Conv2d(128, 64, kernel_size=(3, 3), stride=(1, 1), padding=(1, 1))
        (adn): ADN(
          (N): InstanceNorm2d(64, eps=1e-05, momentum=0.1, affine=False, track_running_stats=False)
          (D): Dropout(p=0.0, inplace=False)
          (A): PReLU(num_parameters=1)
        )
      )
      (submodule): Sequential(
        (0): ConvBlock(
          (conv): Sequential(
            (0): Convolution(
              (conv): Conv2d(64, 128, kernel_size=(3, 3), stride=(2, 2), padding=(1, 1))
              (adn): ADN(
                (N): BatchNorm2d(128, eps=1e-05, momentum=0.1, affine=True, track_running_stats=True)
                (D): Dropout(p=0.0, inplace=False)
                (A): ReLU()
              )
            )
            (1): Convolution(
              (conv): Conv2d(128, 128, kernel_size=(3, 3), stride=(1, 1), padding=(1, 1))
              (adn): ADN(
                (N): BatchNorm2d(128, eps=1e-05, momentum=0.1, affine=True, track_running_stats=True)
                (D): Dropout(p=0.0, inplace=False)
                (A): ReLU()
              )
            )
          )
        )
        (1): AttentionLayer(
          (attention): AttentionBlock(
            (W_g): Sequential(
              (0): Convolution(
                (conv): Conv2d(128, 64, kernel_size=(1, 1), stride=(1, 1))
              )
              (1): BatchNorm2d(64, eps=1e-05, momentum=0.1, affine=True, track_running_stats=True)
            )
            (W_x): Sequential(
              (0): Convolution(
                (conv): Conv2d(128, 64, kernel_size=(1, 1), stride=(1, 1))
              )
              (1): BatchNorm2d(64, eps=1e-05, momentum=0.1, affine=True, track_running_stats=True)
            )
            (psi): Sequential(
              (0): Convolution(
                (conv): Conv2d(64, 1, kernel_size=(1, 1), stride=(1, 1))
              )
              (1): BatchNorm2d(1, eps=1e-05, momentum=0.1, affine=True, track_running_stats=True)
              (2): Sigmoid()
            )
            (relu): ReLU()
          )
          (upconv): UpConv(
            (up): Convolution(
              (conv): ConvTranspose2d(256, 128, kernel_size=(3, 3), stride=(2, 2), padding=(1, 1), output_padding=(1, 1))
              (adn): ADN(
                (N): BatchNorm2d(128, eps=1e-05, momentum=0.1, affine=True, track_running_stats=True)
                (D): Dropout(p=0.0, inplace=False)
                (A): ReLU()
              )
            )
          )
          (merge): Convolution(
            (conv): Conv2d(256, 128, kernel_size=(3, 3), stride=(1, 1), padding=(1, 1))
            (adn): ADN(
              (N): InstanceNorm2d(128, eps=1e-05, momentum=0.1, affine=False, track_running_stats=False)
              (D): Dropout(p=0.0, inplace=False)
              (A): PReLU(num_parameters=1)
            )
          )
          (submodule): ConvBlock(
            (conv): Sequential(
              (0): Convolution(
                (conv): Conv2d(128, 256, kernel_size=(3, 3), stride=(2, 2), padding=(1, 1))
                (adn): ADN(
                  (N): BatchNorm2d(256, eps=1e-05, momentum=0.1, affine=True, track_running_stats=True)
                  (D): Dropout(p=0.0, inplace=False)
                  (A): ReLU()
                )
              )
              (1): Convolution(
                (conv): Conv2d(256, 256, kernel_size=(3, 3), stride=(1, 1), padding=(1, 1))
                (adn): ADN(
                  (N): BatchNorm2d(256, eps=1e-05, momentum=0.1, affine=True, track_running_stats=True)
                  (D): Dropout(p=0.0, inplace=False)
                  (A): ReLU()
                )
              )
            )
          )
        )
      )
    )
    (2): Convolution(
      (conv): Conv2d(64, 1, kernel_size=(1, 1), stride=(1, 1))
    )
  )
)",validation/AttentionUnet/AttentionUnet_14_2022-08-18.png,0.0
2022-08-18,"AttentionUnet(
  (model): Sequential(
    (0): ConvBlock(
      (conv): Sequential(
        (0): Convolution(
          (conv): Conv2d(1, 64, kernel_size=(3, 3), stride=(1, 1), padding=(1, 1))
          (adn): ADN(
            (N): BatchNorm2d(64, eps=1e-05, momentum=0.1, affine=True, track_running_stats=True)
            (D): Dropout(p=0.0, inplace=False)
            (A): ReLU()
          )
        )
        (1): Convolution(
          (conv): Conv2d(64, 64, kernel_size=(3, 3), stride=(1, 1), padding=(1, 1))
          (adn): ADN(
            (N): BatchNorm2d(64, eps=1e-05, momentum=0.1, affine=True, track_running_stats=True)
            (D): Dropout(p=0.0, inplace=False)
            (A): ReLU()
          )
        )
      )
    )
    (1): AttentionLayer(
      (attention): AttentionBlock(
        (W_g): Sequential(
          (0): Convolution(
            (conv): Conv2d(64, 32, kernel_size=(1, 1), stride=(1, 1))
          )
          (1): BatchNorm2d(32, eps=1e-05, momentum=0.1, affine=True, track_running_stats=True)
        )
        (W_x): Sequential(
          (0): Convolution(
            (conv): Conv2d(64, 32, kernel_size=(1, 1), stride=(1, 1))
          )
          (1): BatchNorm2d(32, eps=1e-05, momentum=0.1, affine=True, track_running_stats=True)
        )
        (psi): Sequential(
          (0): Convolution(
            (conv): Conv2d(32, 1, kernel_size=(1, 1), stride=(1, 1))
          )
          (1): BatchNorm2d(1, eps=1e-05, momentum=0.1, affine=True, track_running_stats=True)
          (2): Sigmoid()
        )
        (relu): ReLU()
      )
      (upconv): UpConv(
        (up): Convolution(
          (conv): ConvTranspose2d(128, 64, kernel_size=(3, 3), stride=(2, 2), padding=(1, 1), output_padding=(1, 1))
          (adn): ADN(
            (N): BatchNorm2d(64, eps=1e-05, momentum=0.1, affine=True, track_running_stats=True)
            (D): Dropout(p=0.0, inplace=False)
            (A): ReLU()
          )
        )
      )
      (merge): Convolution(
        (conv): Conv2d(128, 64, kernel_size=(3, 3), stride=(1, 1), padding=(1, 1))
        (adn): ADN(
          (N): InstanceNorm2d(64, eps=1e-05, momentum=0.1, affine=False, track_running_stats=False)
          (D): Dropout(p=0.0, inplace=False)
          (A): PReLU(num_parameters=1)
        )
      )
      (submodule): Sequential(
        (0): ConvBlock(
          (conv): Sequential(
            (0): Convolution(
              (conv): Conv2d(64, 128, kernel_size=(3, 3), stride=(2, 2), padding=(1, 1))
              (adn): ADN(
                (N): BatchNorm2d(128, eps=1e-05, momentum=0.1, affine=True, track_running_stats=True)
                (D): Dropout(p=0.0, inplace=False)
                (A): ReLU()
              )
            )
            (1): Convolution(
              (conv): Conv2d(128, 128, kernel_size=(3, 3), stride=(1, 1), padding=(1, 1))
              (adn): ADN(
                (N): BatchNorm2d(128, eps=1e-05, momentum=0.1, affine=True, track_running_stats=True)
                (D): Dropout(p=0.0, inplace=False)
                (A): ReLU()
              )
            )
          )
        )
        (1): AttentionLayer(
          (attention): AttentionBlock(
            (W_g): Sequential(
              (0): Convolution(
                (conv): Conv2d(128, 64, kernel_size=(1, 1), stride=(1, 1))
              )
              (1): BatchNorm2d(64, eps=1e-05, momentum=0.1, affine=True, track_running_stats=True)
            )
            (W_x): Sequential(
              (0): Convolution(
                (conv): Conv2d(128, 64, kernel_size=(1, 1), stride=(1, 1))
              )
              (1): BatchNorm2d(64, eps=1e-05, momentum=0.1, affine=True, track_running_stats=True)
            )
            (psi): Sequential(
              (0): Convolution(
                (conv): Conv2d(64, 1, kernel_size=(1, 1), stride=(1, 1))
              )
              (1): BatchNorm2d(1, eps=1e-05, momentum=0.1, affine=True, track_running_stats=True)
              (2): Sigmoid()
            )
            (relu): ReLU()
          )
          (upconv): UpConv(
            (up): Convolution(
              (conv): ConvTranspose2d(256, 128, kernel_size=(3, 3), stride=(2, 2), padding=(1, 1), output_padding=(1, 1))
              (adn): ADN(
                (N): BatchNorm2d(128, eps=1e-05, momentum=0.1, affine=True, track_running_stats=True)
                (D): Dropout(p=0.0, inplace=False)
                (A): ReLU()
              )
            )
          )
          (merge): Convolution(
            (conv): Conv2d(256, 128, kernel_size=(3, 3), stride=(1, 1), padding=(1, 1))
            (adn): ADN(
              (N): InstanceNorm2d(128, eps=1e-05, momentum=0.1, affine=False, track_running_stats=False)
              (D): Dropout(p=0.0, inplace=False)
              (A): PReLU(num_parameters=1)
            )
          )
          (submodule): ConvBlock(
            (conv): Sequential(
              (0): Convolution(
                (conv): Conv2d(128, 256, kernel_size=(3, 3), stride=(2, 2), padding=(1, 1))
                (adn): ADN(
                  (N): BatchNorm2d(256, eps=1e-05, momentum=0.1, affine=True, track_running_stats=True)
                  (D): Dropout(p=0.0, inplace=False)
                  (A): ReLU()
                )
              )
              (1): Convolution(
                (conv): Conv2d(256, 256, kernel_size=(3, 3), stride=(1, 1), padding=(1, 1))
                (adn): ADN(
                  (N): BatchNorm2d(256, eps=1e-05, momentum=0.1, affine=True, track_running_stats=True)
                  (D): Dropout(p=0.0, inplace=False)
                  (A): ReLU()
                )
              )
            )
          )
        )
      )
    )
    (2): Convolution(
      (conv): Conv2d(64, 1, kernel_size=(1, 1), stride=(1, 1))
    )
  )
)",validation/AttentionUnet/AttentionUnet_15_2022-08-18.png,0.5061218738555908
2022-08-18,"AttentionUnet(
  (model): Sequential(
    (0): ConvBlock(
      (conv): Sequential(
        (0): Convolution(
          (conv): Conv2d(1, 64, kernel_size=(3, 3), stride=(1, 1), padding=(1, 1))
          (adn): ADN(
            (N): BatchNorm2d(64, eps=1e-05, momentum=0.1, affine=True, track_running_stats=True)
            (D): Dropout(p=0.0, inplace=False)
            (A): ReLU()
          )
        )
        (1): Convolution(
          (conv): Conv2d(64, 64, kernel_size=(3, 3), stride=(1, 1), padding=(1, 1))
          (adn): ADN(
            (N): BatchNorm2d(64, eps=1e-05, momentum=0.1, affine=True, track_running_stats=True)
            (D): Dropout(p=0.0, inplace=False)
            (A): ReLU()
          )
        )
      )
    )
    (1): AttentionLayer(
      (attention): AttentionBlock(
        (W_g): Sequential(
          (0): Convolution(
            (conv): Conv2d(64, 32, kernel_size=(1, 1), stride=(1, 1))
          )
          (1): BatchNorm2d(32, eps=1e-05, momentum=0.1, affine=True, track_running_stats=True)
        )
        (W_x): Sequential(
          (0): Convolution(
            (conv): Conv2d(64, 32, kernel_size=(1, 1), stride=(1, 1))
          )
          (1): BatchNorm2d(32, eps=1e-05, momentum=0.1, affine=True, track_running_stats=True)
        )
        (psi): Sequential(
          (0): Convolution(
            (conv): Conv2d(32, 1, kernel_size=(1, 1), stride=(1, 1))
          )
          (1): BatchNorm2d(1, eps=1e-05, momentum=0.1, affine=True, track_running_stats=True)
          (2): Sigmoid()
        )
        (relu): ReLU()
      )
      (upconv): UpConv(
        (up): Convolution(
          (conv): ConvTranspose2d(128, 64, kernel_size=(3, 3), stride=(2, 2), padding=(1, 1), output_padding=(1, 1))
          (adn): ADN(
            (N): BatchNorm2d(64, eps=1e-05, momentum=0.1, affine=True, track_running_stats=True)
            (D): Dropout(p=0.0, inplace=False)
            (A): ReLU()
          )
        )
      )
      (merge): Convolution(
        (conv): Conv2d(128, 64, kernel_size=(3, 3), stride=(1, 1), padding=(1, 1))
        (adn): ADN(
          (N): InstanceNorm2d(64, eps=1e-05, momentum=0.1, affine=False, track_running_stats=False)
          (D): Dropout(p=0.0, inplace=False)
          (A): PReLU(num_parameters=1)
        )
      )
      (submodule): Sequential(
        (0): ConvBlock(
          (conv): Sequential(
            (0): Convolution(
              (conv): Conv2d(64, 128, kernel_size=(3, 3), stride=(2, 2), padding=(1, 1))
              (adn): ADN(
                (N): BatchNorm2d(128, eps=1e-05, momentum=0.1, affine=True, track_running_stats=True)
                (D): Dropout(p=0.0, inplace=False)
                (A): ReLU()
              )
            )
            (1): Convolution(
              (conv): Conv2d(128, 128, kernel_size=(3, 3), stride=(1, 1), padding=(1, 1))
              (adn): ADN(
                (N): BatchNorm2d(128, eps=1e-05, momentum=0.1, affine=True, track_running_stats=True)
                (D): Dropout(p=0.0, inplace=False)
                (A): ReLU()
              )
            )
          )
        )
        (1): AttentionLayer(
          (attention): AttentionBlock(
            (W_g): Sequential(
              (0): Convolution(
                (conv): Conv2d(128, 64, kernel_size=(1, 1), stride=(1, 1))
              )
              (1): BatchNorm2d(64, eps=1e-05, momentum=0.1, affine=True, track_running_stats=True)
            )
            (W_x): Sequential(
              (0): Convolution(
                (conv): Conv2d(128, 64, kernel_size=(1, 1), stride=(1, 1))
              )
              (1): BatchNorm2d(64, eps=1e-05, momentum=0.1, affine=True, track_running_stats=True)
            )
            (psi): Sequential(
              (0): Convolution(
                (conv): Conv2d(64, 1, kernel_size=(1, 1), stride=(1, 1))
              )
              (1): BatchNorm2d(1, eps=1e-05, momentum=0.1, affine=True, track_running_stats=True)
              (2): Sigmoid()
            )
            (relu): ReLU()
          )
          (upconv): UpConv(
            (up): Convolution(
              (conv): ConvTranspose2d(256, 128, kernel_size=(3, 3), stride=(2, 2), padding=(1, 1), output_padding=(1, 1))
              (adn): ADN(
                (N): BatchNorm2d(128, eps=1e-05, momentum=0.1, affine=True, track_running_stats=True)
                (D): Dropout(p=0.0, inplace=False)
                (A): ReLU()
              )
            )
          )
          (merge): Convolution(
            (conv): Conv2d(256, 128, kernel_size=(3, 3), stride=(1, 1), padding=(1, 1))
            (adn): ADN(
              (N): InstanceNorm2d(128, eps=1e-05, momentum=0.1, affine=False, track_running_stats=False)
              (D): Dropout(p=0.0, inplace=False)
              (A): PReLU(num_parameters=1)
            )
          )
          (submodule): ConvBlock(
            (conv): Sequential(
              (0): Convolution(
                (conv): Conv2d(128, 256, kernel_size=(3, 3), stride=(2, 2), padding=(1, 1))
                (adn): ADN(
                  (N): BatchNorm2d(256, eps=1e-05, momentum=0.1, affine=True, track_running_stats=True)
                  (D): Dropout(p=0.0, inplace=False)
                  (A): ReLU()
                )
              )
              (1): Convolution(
                (conv): Conv2d(256, 256, kernel_size=(3, 3), stride=(1, 1), padding=(1, 1))
                (adn): ADN(
                  (N): BatchNorm2d(256, eps=1e-05, momentum=0.1, affine=True, track_running_stats=True)
                  (D): Dropout(p=0.0, inplace=False)
                  (A): ReLU()
                )
              )
            )
          )
        )
      )
    )
    (2): Convolution(
      (conv): Conv2d(64, 1, kernel_size=(1, 1), stride=(1, 1))
    )
  )
)",validation/AttentionUnet/AttentionUnet_16_2022-08-18.png,0.0
2022-08-18,"AttentionUnet(
  (model): Sequential(
    (0): ConvBlock(
      (conv): Sequential(
        (0): Convolution(
          (conv): Conv2d(1, 64, kernel_size=(3, 3), stride=(1, 1), padding=(1, 1))
          (adn): ADN(
            (N): BatchNorm2d(64, eps=1e-05, momentum=0.1, affine=True, track_running_stats=True)
            (D): Dropout(p=0.0, inplace=False)
            (A): ReLU()
          )
        )
        (1): Convolution(
          (conv): Conv2d(64, 64, kernel_size=(3, 3), stride=(1, 1), padding=(1, 1))
          (adn): ADN(
            (N): BatchNorm2d(64, eps=1e-05, momentum=0.1, affine=True, track_running_stats=True)
            (D): Dropout(p=0.0, inplace=False)
            (A): ReLU()
          )
        )
      )
    )
    (1): AttentionLayer(
      (attention): AttentionBlock(
        (W_g): Sequential(
          (0): Convolution(
            (conv): Conv2d(64, 32, kernel_size=(1, 1), stride=(1, 1))
          )
          (1): BatchNorm2d(32, eps=1e-05, momentum=0.1, affine=True, track_running_stats=True)
        )
        (W_x): Sequential(
          (0): Convolution(
            (conv): Conv2d(64, 32, kernel_size=(1, 1), stride=(1, 1))
          )
          (1): BatchNorm2d(32, eps=1e-05, momentum=0.1, affine=True, track_running_stats=True)
        )
        (psi): Sequential(
          (0): Convolution(
            (conv): Conv2d(32, 1, kernel_size=(1, 1), stride=(1, 1))
          )
          (1): BatchNorm2d(1, eps=1e-05, momentum=0.1, affine=True, track_running_stats=True)
          (2): Sigmoid()
        )
        (relu): ReLU()
      )
      (upconv): UpConv(
        (up): Convolution(
          (conv): ConvTranspose2d(128, 64, kernel_size=(3, 3), stride=(2, 2), padding=(1, 1), output_padding=(1, 1))
          (adn): ADN(
            (N): BatchNorm2d(64, eps=1e-05, momentum=0.1, affine=True, track_running_stats=True)
            (D): Dropout(p=0.0, inplace=False)
            (A): ReLU()
          )
        )
      )
      (merge): Convolution(
        (conv): Conv2d(128, 64, kernel_size=(3, 3), stride=(1, 1), padding=(1, 1))
        (adn): ADN(
          (N): InstanceNorm2d(64, eps=1e-05, momentum=0.1, affine=False, track_running_stats=False)
          (D): Dropout(p=0.0, inplace=False)
          (A): PReLU(num_parameters=1)
        )
      )
      (submodule): Sequential(
        (0): ConvBlock(
          (conv): Sequential(
            (0): Convolution(
              (conv): Conv2d(64, 128, kernel_size=(3, 3), stride=(2, 2), padding=(1, 1))
              (adn): ADN(
                (N): BatchNorm2d(128, eps=1e-05, momentum=0.1, affine=True, track_running_stats=True)
                (D): Dropout(p=0.0, inplace=False)
                (A): ReLU()
              )
            )
            (1): Convolution(
              (conv): Conv2d(128, 128, kernel_size=(3, 3), stride=(1, 1), padding=(1, 1))
              (adn): ADN(
                (N): BatchNorm2d(128, eps=1e-05, momentum=0.1, affine=True, track_running_stats=True)
                (D): Dropout(p=0.0, inplace=False)
                (A): ReLU()
              )
            )
          )
        )
        (1): AttentionLayer(
          (attention): AttentionBlock(
            (W_g): Sequential(
              (0): Convolution(
                (conv): Conv2d(128, 64, kernel_size=(1, 1), stride=(1, 1))
              )
              (1): BatchNorm2d(64, eps=1e-05, momentum=0.1, affine=True, track_running_stats=True)
            )
            (W_x): Sequential(
              (0): Convolution(
                (conv): Conv2d(128, 64, kernel_size=(1, 1), stride=(1, 1))
              )
              (1): BatchNorm2d(64, eps=1e-05, momentum=0.1, affine=True, track_running_stats=True)
            )
            (psi): Sequential(
              (0): Convolution(
                (conv): Conv2d(64, 1, kernel_size=(1, 1), stride=(1, 1))
              )
              (1): BatchNorm2d(1, eps=1e-05, momentum=0.1, affine=True, track_running_stats=True)
              (2): Sigmoid()
            )
            (relu): ReLU()
          )
          (upconv): UpConv(
            (up): Convolution(
              (conv): ConvTranspose2d(256, 128, kernel_size=(3, 3), stride=(2, 2), padding=(1, 1), output_padding=(1, 1))
              (adn): ADN(
                (N): BatchNorm2d(128, eps=1e-05, momentum=0.1, affine=True, track_running_stats=True)
                (D): Dropout(p=0.0, inplace=False)
                (A): ReLU()
              )
            )
          )
          (merge): Convolution(
            (conv): Conv2d(256, 128, kernel_size=(3, 3), stride=(1, 1), padding=(1, 1))
            (adn): ADN(
              (N): InstanceNorm2d(128, eps=1e-05, momentum=0.1, affine=False, track_running_stats=False)
              (D): Dropout(p=0.0, inplace=False)
              (A): PReLU(num_parameters=1)
            )
          )
          (submodule): ConvBlock(
            (conv): Sequential(
              (0): Convolution(
                (conv): Conv2d(128, 256, kernel_size=(3, 3), stride=(2, 2), padding=(1, 1))
                (adn): ADN(
                  (N): BatchNorm2d(256, eps=1e-05, momentum=0.1, affine=True, track_running_stats=True)
                  (D): Dropout(p=0.0, inplace=False)
                  (A): ReLU()
                )
              )
              (1): Convolution(
                (conv): Conv2d(256, 256, kernel_size=(3, 3), stride=(1, 1), padding=(1, 1))
                (adn): ADN(
                  (N): BatchNorm2d(256, eps=1e-05, momentum=0.1, affine=True, track_running_stats=True)
                  (D): Dropout(p=0.0, inplace=False)
                  (A): ReLU()
                )
              )
            )
          )
        )
      )
    )
    (2): Convolution(
      (conv): Conv2d(64, 1, kernel_size=(1, 1), stride=(1, 1))
    )
  )
)",validation/AttentionUnet/AttentionUnet_17_2022-08-18.png,0.07562002539634705
2022-08-18,"AttentionUnet(
  (model): Sequential(
    (0): ConvBlock(
      (conv): Sequential(
        (0): Convolution(
          (conv): Conv2d(1, 64, kernel_size=(3, 3), stride=(1, 1), padding=(1, 1))
          (adn): ADN(
            (N): BatchNorm2d(64, eps=1e-05, momentum=0.1, affine=True, track_running_stats=True)
            (D): Dropout(p=0.0, inplace=False)
            (A): ReLU()
          )
        )
        (1): Convolution(
          (conv): Conv2d(64, 64, kernel_size=(3, 3), stride=(1, 1), padding=(1, 1))
          (adn): ADN(
            (N): BatchNorm2d(64, eps=1e-05, momentum=0.1, affine=True, track_running_stats=True)
            (D): Dropout(p=0.0, inplace=False)
            (A): ReLU()
          )
        )
      )
    )
    (1): AttentionLayer(
      (attention): AttentionBlock(
        (W_g): Sequential(
          (0): Convolution(
            (conv): Conv2d(64, 32, kernel_size=(1, 1), stride=(1, 1))
          )
          (1): BatchNorm2d(32, eps=1e-05, momentum=0.1, affine=True, track_running_stats=True)
        )
        (W_x): Sequential(
          (0): Convolution(
            (conv): Conv2d(64, 32, kernel_size=(1, 1), stride=(1, 1))
          )
          (1): BatchNorm2d(32, eps=1e-05, momentum=0.1, affine=True, track_running_stats=True)
        )
        (psi): Sequential(
          (0): Convolution(
            (conv): Conv2d(32, 1, kernel_size=(1, 1), stride=(1, 1))
          )
          (1): BatchNorm2d(1, eps=1e-05, momentum=0.1, affine=True, track_running_stats=True)
          (2): Sigmoid()
        )
        (relu): ReLU()
      )
      (upconv): UpConv(
        (up): Convolution(
          (conv): ConvTranspose2d(128, 64, kernel_size=(3, 3), stride=(2, 2), padding=(1, 1), output_padding=(1, 1))
          (adn): ADN(
            (N): BatchNorm2d(64, eps=1e-05, momentum=0.1, affine=True, track_running_stats=True)
            (D): Dropout(p=0.0, inplace=False)
            (A): ReLU()
          )
        )
      )
      (merge): Convolution(
        (conv): Conv2d(128, 64, kernel_size=(3, 3), stride=(1, 1), padding=(1, 1))
        (adn): ADN(
          (N): InstanceNorm2d(64, eps=1e-05, momentum=0.1, affine=False, track_running_stats=False)
          (D): Dropout(p=0.0, inplace=False)
          (A): PReLU(num_parameters=1)
        )
      )
      (submodule): Sequential(
        (0): ConvBlock(
          (conv): Sequential(
            (0): Convolution(
              (conv): Conv2d(64, 128, kernel_size=(3, 3), stride=(2, 2), padding=(1, 1))
              (adn): ADN(
                (N): BatchNorm2d(128, eps=1e-05, momentum=0.1, affine=True, track_running_stats=True)
                (D): Dropout(p=0.0, inplace=False)
                (A): ReLU()
              )
            )
            (1): Convolution(
              (conv): Conv2d(128, 128, kernel_size=(3, 3), stride=(1, 1), padding=(1, 1))
              (adn): ADN(
                (N): BatchNorm2d(128, eps=1e-05, momentum=0.1, affine=True, track_running_stats=True)
                (D): Dropout(p=0.0, inplace=False)
                (A): ReLU()
              )
            )
          )
        )
        (1): AttentionLayer(
          (attention): AttentionBlock(
            (W_g): Sequential(
              (0): Convolution(
                (conv): Conv2d(128, 64, kernel_size=(1, 1), stride=(1, 1))
              )
              (1): BatchNorm2d(64, eps=1e-05, momentum=0.1, affine=True, track_running_stats=True)
            )
            (W_x): Sequential(
              (0): Convolution(
                (conv): Conv2d(128, 64, kernel_size=(1, 1), stride=(1, 1))
              )
              (1): BatchNorm2d(64, eps=1e-05, momentum=0.1, affine=True, track_running_stats=True)
            )
            (psi): Sequential(
              (0): Convolution(
                (conv): Conv2d(64, 1, kernel_size=(1, 1), stride=(1, 1))
              )
              (1): BatchNorm2d(1, eps=1e-05, momentum=0.1, affine=True, track_running_stats=True)
              (2): Sigmoid()
            )
            (relu): ReLU()
          )
          (upconv): UpConv(
            (up): Convolution(
              (conv): ConvTranspose2d(256, 128, kernel_size=(3, 3), stride=(2, 2), padding=(1, 1), output_padding=(1, 1))
              (adn): ADN(
                (N): BatchNorm2d(128, eps=1e-05, momentum=0.1, affine=True, track_running_stats=True)
                (D): Dropout(p=0.0, inplace=False)
                (A): ReLU()
              )
            )
          )
          (merge): Convolution(
            (conv): Conv2d(256, 128, kernel_size=(3, 3), stride=(1, 1), padding=(1, 1))
            (adn): ADN(
              (N): InstanceNorm2d(128, eps=1e-05, momentum=0.1, affine=False, track_running_stats=False)
              (D): Dropout(p=0.0, inplace=False)
              (A): PReLU(num_parameters=1)
            )
          )
          (submodule): ConvBlock(
            (conv): Sequential(
              (0): Convolution(
                (conv): Conv2d(128, 256, kernel_size=(3, 3), stride=(2, 2), padding=(1, 1))
                (adn): ADN(
                  (N): BatchNorm2d(256, eps=1e-05, momentum=0.1, affine=True, track_running_stats=True)
                  (D): Dropout(p=0.0, inplace=False)
                  (A): ReLU()
                )
              )
              (1): Convolution(
                (conv): Conv2d(256, 256, kernel_size=(3, 3), stride=(1, 1), padding=(1, 1))
                (adn): ADN(
                  (N): BatchNorm2d(256, eps=1e-05, momentum=0.1, affine=True, track_running_stats=True)
                  (D): Dropout(p=0.0, inplace=False)
                  (A): ReLU()
                )
              )
            )
          )
        )
      )
    )
    (2): Convolution(
      (conv): Conv2d(64, 1, kernel_size=(1, 1), stride=(1, 1))
    )
  )
)",validation/AttentionUnet/AttentionUnet_18_2022-08-18.png,0.0015708522405475378
2022-08-18,"AttentionUnet(
  (model): Sequential(
    (0): ConvBlock(
      (conv): Sequential(
        (0): Convolution(
          (conv): Conv2d(1, 64, kernel_size=(3, 3), stride=(1, 1), padding=(1, 1))
          (adn): ADN(
            (N): BatchNorm2d(64, eps=1e-05, momentum=0.1, affine=True, track_running_stats=True)
            (D): Dropout(p=0.0, inplace=False)
            (A): ReLU()
          )
        )
        (1): Convolution(
          (conv): Conv2d(64, 64, kernel_size=(3, 3), stride=(1, 1), padding=(1, 1))
          (adn): ADN(
            (N): BatchNorm2d(64, eps=1e-05, momentum=0.1, affine=True, track_running_stats=True)
            (D): Dropout(p=0.0, inplace=False)
            (A): ReLU()
          )
        )
      )
    )
    (1): AttentionLayer(
      (attention): AttentionBlock(
        (W_g): Sequential(
          (0): Convolution(
            (conv): Conv2d(64, 32, kernel_size=(1, 1), stride=(1, 1))
          )
          (1): BatchNorm2d(32, eps=1e-05, momentum=0.1, affine=True, track_running_stats=True)
        )
        (W_x): Sequential(
          (0): Convolution(
            (conv): Conv2d(64, 32, kernel_size=(1, 1), stride=(1, 1))
          )
          (1): BatchNorm2d(32, eps=1e-05, momentum=0.1, affine=True, track_running_stats=True)
        )
        (psi): Sequential(
          (0): Convolution(
            (conv): Conv2d(32, 1, kernel_size=(1, 1), stride=(1, 1))
          )
          (1): BatchNorm2d(1, eps=1e-05, momentum=0.1, affine=True, track_running_stats=True)
          (2): Sigmoid()
        )
        (relu): ReLU()
      )
      (upconv): UpConv(
        (up): Convolution(
          (conv): ConvTranspose2d(128, 64, kernel_size=(3, 3), stride=(2, 2), padding=(1, 1), output_padding=(1, 1))
          (adn): ADN(
            (N): BatchNorm2d(64, eps=1e-05, momentum=0.1, affine=True, track_running_stats=True)
            (D): Dropout(p=0.0, inplace=False)
            (A): ReLU()
          )
        )
      )
      (merge): Convolution(
        (conv): Conv2d(128, 64, kernel_size=(3, 3), stride=(1, 1), padding=(1, 1))
        (adn): ADN(
          (N): InstanceNorm2d(64, eps=1e-05, momentum=0.1, affine=False, track_running_stats=False)
          (D): Dropout(p=0.0, inplace=False)
          (A): PReLU(num_parameters=1)
        )
      )
      (submodule): Sequential(
        (0): ConvBlock(
          (conv): Sequential(
            (0): Convolution(
              (conv): Conv2d(64, 128, kernel_size=(3, 3), stride=(2, 2), padding=(1, 1))
              (adn): ADN(
                (N): BatchNorm2d(128, eps=1e-05, momentum=0.1, affine=True, track_running_stats=True)
                (D): Dropout(p=0.0, inplace=False)
                (A): ReLU()
              )
            )
            (1): Convolution(
              (conv): Conv2d(128, 128, kernel_size=(3, 3), stride=(1, 1), padding=(1, 1))
              (adn): ADN(
                (N): BatchNorm2d(128, eps=1e-05, momentum=0.1, affine=True, track_running_stats=True)
                (D): Dropout(p=0.0, inplace=False)
                (A): ReLU()
              )
            )
          )
        )
        (1): AttentionLayer(
          (attention): AttentionBlock(
            (W_g): Sequential(
              (0): Convolution(
                (conv): Conv2d(128, 64, kernel_size=(1, 1), stride=(1, 1))
              )
              (1): BatchNorm2d(64, eps=1e-05, momentum=0.1, affine=True, track_running_stats=True)
            )
            (W_x): Sequential(
              (0): Convolution(
                (conv): Conv2d(128, 64, kernel_size=(1, 1), stride=(1, 1))
              )
              (1): BatchNorm2d(64, eps=1e-05, momentum=0.1, affine=True, track_running_stats=True)
            )
            (psi): Sequential(
              (0): Convolution(
                (conv): Conv2d(64, 1, kernel_size=(1, 1), stride=(1, 1))
              )
              (1): BatchNorm2d(1, eps=1e-05, momentum=0.1, affine=True, track_running_stats=True)
              (2): Sigmoid()
            )
            (relu): ReLU()
          )
          (upconv): UpConv(
            (up): Convolution(
              (conv): ConvTranspose2d(256, 128, kernel_size=(3, 3), stride=(2, 2), padding=(1, 1), output_padding=(1, 1))
              (adn): ADN(
                (N): BatchNorm2d(128, eps=1e-05, momentum=0.1, affine=True, track_running_stats=True)
                (D): Dropout(p=0.0, inplace=False)
                (A): ReLU()
              )
            )
          )
          (merge): Convolution(
            (conv): Conv2d(256, 128, kernel_size=(3, 3), stride=(1, 1), padding=(1, 1))
            (adn): ADN(
              (N): InstanceNorm2d(128, eps=1e-05, momentum=0.1, affine=False, track_running_stats=False)
              (D): Dropout(p=0.0, inplace=False)
              (A): PReLU(num_parameters=1)
            )
          )
          (submodule): ConvBlock(
            (conv): Sequential(
              (0): Convolution(
                (conv): Conv2d(128, 256, kernel_size=(3, 3), stride=(2, 2), padding=(1, 1))
                (adn): ADN(
                  (N): BatchNorm2d(256, eps=1e-05, momentum=0.1, affine=True, track_running_stats=True)
                  (D): Dropout(p=0.0, inplace=False)
                  (A): ReLU()
                )
              )
              (1): Convolution(
                (conv): Conv2d(256, 256, kernel_size=(3, 3), stride=(1, 1), padding=(1, 1))
                (adn): ADN(
                  (N): BatchNorm2d(256, eps=1e-05, momentum=0.1, affine=True, track_running_stats=True)
                  (D): Dropout(p=0.0, inplace=False)
                  (A): ReLU()
                )
              )
            )
          )
        )
      )
    )
    (2): Convolution(
      (conv): Conv2d(64, 1, kernel_size=(1, 1), stride=(1, 1))
    )
  )
)",validation/AttentionUnet/AttentionUnet_19_2022-08-18.png,0.4442349970340729
2022-08-18,"AttentionUnet(
  (model): Sequential(
    (0): ConvBlock(
      (conv): Sequential(
        (0): Convolution(
          (conv): Conv2d(1, 64, kernel_size=(3, 3), stride=(1, 1), padding=(1, 1))
          (adn): ADN(
            (N): BatchNorm2d(64, eps=1e-05, momentum=0.1, affine=True, track_running_stats=True)
            (D): Dropout(p=0.0, inplace=False)
            (A): ReLU()
          )
        )
        (1): Convolution(
          (conv): Conv2d(64, 64, kernel_size=(3, 3), stride=(1, 1), padding=(1, 1))
          (adn): ADN(
            (N): BatchNorm2d(64, eps=1e-05, momentum=0.1, affine=True, track_running_stats=True)
            (D): Dropout(p=0.0, inplace=False)
            (A): ReLU()
          )
        )
      )
    )
    (1): AttentionLayer(
      (attention): AttentionBlock(
        (W_g): Sequential(
          (0): Convolution(
            (conv): Conv2d(64, 32, kernel_size=(1, 1), stride=(1, 1))
          )
          (1): BatchNorm2d(32, eps=1e-05, momentum=0.1, affine=True, track_running_stats=True)
        )
        (W_x): Sequential(
          (0): Convolution(
            (conv): Conv2d(64, 32, kernel_size=(1, 1), stride=(1, 1))
          )
          (1): BatchNorm2d(32, eps=1e-05, momentum=0.1, affine=True, track_running_stats=True)
        )
        (psi): Sequential(
          (0): Convolution(
            (conv): Conv2d(32, 1, kernel_size=(1, 1), stride=(1, 1))
          )
          (1): BatchNorm2d(1, eps=1e-05, momentum=0.1, affine=True, track_running_stats=True)
          (2): Sigmoid()
        )
        (relu): ReLU()
      )
      (upconv): UpConv(
        (up): Convolution(
          (conv): ConvTranspose2d(128, 64, kernel_size=(3, 3), stride=(2, 2), padding=(1, 1), output_padding=(1, 1))
          (adn): ADN(
            (N): BatchNorm2d(64, eps=1e-05, momentum=0.1, affine=True, track_running_stats=True)
            (D): Dropout(p=0.0, inplace=False)
            (A): ReLU()
          )
        )
      )
      (merge): Convolution(
        (conv): Conv2d(128, 64, kernel_size=(3, 3), stride=(1, 1), padding=(1, 1))
        (adn): ADN(
          (N): InstanceNorm2d(64, eps=1e-05, momentum=0.1, affine=False, track_running_stats=False)
          (D): Dropout(p=0.0, inplace=False)
          (A): PReLU(num_parameters=1)
        )
      )
      (submodule): Sequential(
        (0): ConvBlock(
          (conv): Sequential(
            (0): Convolution(
              (conv): Conv2d(64, 128, kernel_size=(3, 3), stride=(2, 2), padding=(1, 1))
              (adn): ADN(
                (N): BatchNorm2d(128, eps=1e-05, momentum=0.1, affine=True, track_running_stats=True)
                (D): Dropout(p=0.0, inplace=False)
                (A): ReLU()
              )
            )
            (1): Convolution(
              (conv): Conv2d(128, 128, kernel_size=(3, 3), stride=(1, 1), padding=(1, 1))
              (adn): ADN(
                (N): BatchNorm2d(128, eps=1e-05, momentum=0.1, affine=True, track_running_stats=True)
                (D): Dropout(p=0.0, inplace=False)
                (A): ReLU()
              )
            )
          )
        )
        (1): AttentionLayer(
          (attention): AttentionBlock(
            (W_g): Sequential(
              (0): Convolution(
                (conv): Conv2d(128, 64, kernel_size=(1, 1), stride=(1, 1))
              )
              (1): BatchNorm2d(64, eps=1e-05, momentum=0.1, affine=True, track_running_stats=True)
            )
            (W_x): Sequential(
              (0): Convolution(
                (conv): Conv2d(128, 64, kernel_size=(1, 1), stride=(1, 1))
              )
              (1): BatchNorm2d(64, eps=1e-05, momentum=0.1, affine=True, track_running_stats=True)
            )
            (psi): Sequential(
              (0): Convolution(
                (conv): Conv2d(64, 1, kernel_size=(1, 1), stride=(1, 1))
              )
              (1): BatchNorm2d(1, eps=1e-05, momentum=0.1, affine=True, track_running_stats=True)
              (2): Sigmoid()
            )
            (relu): ReLU()
          )
          (upconv): UpConv(
            (up): Convolution(
              (conv): ConvTranspose2d(256, 128, kernel_size=(3, 3), stride=(2, 2), padding=(1, 1), output_padding=(1, 1))
              (adn): ADN(
                (N): BatchNorm2d(128, eps=1e-05, momentum=0.1, affine=True, track_running_stats=True)
                (D): Dropout(p=0.0, inplace=False)
                (A): ReLU()
              )
            )
          )
          (merge): Convolution(
            (conv): Conv2d(256, 128, kernel_size=(3, 3), stride=(1, 1), padding=(1, 1))
            (adn): ADN(
              (N): InstanceNorm2d(128, eps=1e-05, momentum=0.1, affine=False, track_running_stats=False)
              (D): Dropout(p=0.0, inplace=False)
              (A): PReLU(num_parameters=1)
            )
          )
          (submodule): ConvBlock(
            (conv): Sequential(
              (0): Convolution(
                (conv): Conv2d(128, 256, kernel_size=(3, 3), stride=(2, 2), padding=(1, 1))
                (adn): ADN(
                  (N): BatchNorm2d(256, eps=1e-05, momentum=0.1, affine=True, track_running_stats=True)
                  (D): Dropout(p=0.0, inplace=False)
                  (A): ReLU()
                )
              )
              (1): Convolution(
                (conv): Conv2d(256, 256, kernel_size=(3, 3), stride=(1, 1), padding=(1, 1))
                (adn): ADN(
                  (N): BatchNorm2d(256, eps=1e-05, momentum=0.1, affine=True, track_running_stats=True)
                  (D): Dropout(p=0.0, inplace=False)
                  (A): ReLU()
                )
              )
            )
          )
        )
      )
    )
    (2): Convolution(
      (conv): Conv2d(64, 1, kernel_size=(1, 1), stride=(1, 1))
    )
  )
)",validation/AttentionUnet/AttentionUnet_20_2022-08-18.png,2.3698709128439077e-07
2022-08-18,"AttentionUnet(
  (model): Sequential(
    (0): ConvBlock(
      (conv): Sequential(
        (0): Convolution(
          (conv): Conv2d(1, 64, kernel_size=(3, 3), stride=(1, 1), padding=(1, 1))
          (adn): ADN(
            (N): BatchNorm2d(64, eps=1e-05, momentum=0.1, affine=True, track_running_stats=True)
            (D): Dropout(p=0.0, inplace=False)
            (A): ReLU()
          )
        )
        (1): Convolution(
          (conv): Conv2d(64, 64, kernel_size=(3, 3), stride=(1, 1), padding=(1, 1))
          (adn): ADN(
            (N): BatchNorm2d(64, eps=1e-05, momentum=0.1, affine=True, track_running_stats=True)
            (D): Dropout(p=0.0, inplace=False)
            (A): ReLU()
          )
        )
      )
    )
    (1): AttentionLayer(
      (attention): AttentionBlock(
        (W_g): Sequential(
          (0): Convolution(
            (conv): Conv2d(64, 32, kernel_size=(1, 1), stride=(1, 1))
          )
          (1): BatchNorm2d(32, eps=1e-05, momentum=0.1, affine=True, track_running_stats=True)
        )
        (W_x): Sequential(
          (0): Convolution(
            (conv): Conv2d(64, 32, kernel_size=(1, 1), stride=(1, 1))
          )
          (1): BatchNorm2d(32, eps=1e-05, momentum=0.1, affine=True, track_running_stats=True)
        )
        (psi): Sequential(
          (0): Convolution(
            (conv): Conv2d(32, 1, kernel_size=(1, 1), stride=(1, 1))
          )
          (1): BatchNorm2d(1, eps=1e-05, momentum=0.1, affine=True, track_running_stats=True)
          (2): Sigmoid()
        )
        (relu): ReLU()
      )
      (upconv): UpConv(
        (up): Convolution(
          (conv): ConvTranspose2d(128, 64, kernel_size=(3, 3), stride=(2, 2), padding=(1, 1), output_padding=(1, 1))
          (adn): ADN(
            (N): BatchNorm2d(64, eps=1e-05, momentum=0.1, affine=True, track_running_stats=True)
            (D): Dropout(p=0.0, inplace=False)
            (A): ReLU()
          )
        )
      )
      (merge): Convolution(
        (conv): Conv2d(128, 64, kernel_size=(3, 3), stride=(1, 1), padding=(1, 1))
        (adn): ADN(
          (N): InstanceNorm2d(64, eps=1e-05, momentum=0.1, affine=False, track_running_stats=False)
          (D): Dropout(p=0.0, inplace=False)
          (A): PReLU(num_parameters=1)
        )
      )
      (submodule): Sequential(
        (0): ConvBlock(
          (conv): Sequential(
            (0): Convolution(
              (conv): Conv2d(64, 128, kernel_size=(3, 3), stride=(2, 2), padding=(1, 1))
              (adn): ADN(
                (N): BatchNorm2d(128, eps=1e-05, momentum=0.1, affine=True, track_running_stats=True)
                (D): Dropout(p=0.0, inplace=False)
                (A): ReLU()
              )
            )
            (1): Convolution(
              (conv): Conv2d(128, 128, kernel_size=(3, 3), stride=(1, 1), padding=(1, 1))
              (adn): ADN(
                (N): BatchNorm2d(128, eps=1e-05, momentum=0.1, affine=True, track_running_stats=True)
                (D): Dropout(p=0.0, inplace=False)
                (A): ReLU()
              )
            )
          )
        )
        (1): AttentionLayer(
          (attention): AttentionBlock(
            (W_g): Sequential(
              (0): Convolution(
                (conv): Conv2d(128, 64, kernel_size=(1, 1), stride=(1, 1))
              )
              (1): BatchNorm2d(64, eps=1e-05, momentum=0.1, affine=True, track_running_stats=True)
            )
            (W_x): Sequential(
              (0): Convolution(
                (conv): Conv2d(128, 64, kernel_size=(1, 1), stride=(1, 1))
              )
              (1): BatchNorm2d(64, eps=1e-05, momentum=0.1, affine=True, track_running_stats=True)
            )
            (psi): Sequential(
              (0): Convolution(
                (conv): Conv2d(64, 1, kernel_size=(1, 1), stride=(1, 1))
              )
              (1): BatchNorm2d(1, eps=1e-05, momentum=0.1, affine=True, track_running_stats=True)
              (2): Sigmoid()
            )
            (relu): ReLU()
          )
          (upconv): UpConv(
            (up): Convolution(
              (conv): ConvTranspose2d(256, 128, kernel_size=(3, 3), stride=(2, 2), padding=(1, 1), output_padding=(1, 1))
              (adn): ADN(
                (N): BatchNorm2d(128, eps=1e-05, momentum=0.1, affine=True, track_running_stats=True)
                (D): Dropout(p=0.0, inplace=False)
                (A): ReLU()
              )
            )
          )
          (merge): Convolution(
            (conv): Conv2d(256, 128, kernel_size=(3, 3), stride=(1, 1), padding=(1, 1))
            (adn): ADN(
              (N): InstanceNorm2d(128, eps=1e-05, momentum=0.1, affine=False, track_running_stats=False)
              (D): Dropout(p=0.0, inplace=False)
              (A): PReLU(num_parameters=1)
            )
          )
          (submodule): ConvBlock(
            (conv): Sequential(
              (0): Convolution(
                (conv): Conv2d(128, 256, kernel_size=(3, 3), stride=(2, 2), padding=(1, 1))
                (adn): ADN(
                  (N): BatchNorm2d(256, eps=1e-05, momentum=0.1, affine=True, track_running_stats=True)
                  (D): Dropout(p=0.0, inplace=False)
                  (A): ReLU()
                )
              )
              (1): Convolution(
                (conv): Conv2d(256, 256, kernel_size=(3, 3), stride=(1, 1), padding=(1, 1))
                (adn): ADN(
                  (N): BatchNorm2d(256, eps=1e-05, momentum=0.1, affine=True, track_running_stats=True)
                  (D): Dropout(p=0.0, inplace=False)
                  (A): ReLU()
                )
              )
            )
          )
        )
      )
    )
    (2): Convolution(
      (conv): Conv2d(64, 1, kernel_size=(1, 1), stride=(1, 1))
    )
  )
)",validation/AttentionUnet/AttentionUnet_21_2022-08-18.png,0.0
2022-08-18,"AttentionUnet(
  (model): Sequential(
    (0): ConvBlock(
      (conv): Sequential(
        (0): Convolution(
          (conv): Conv2d(1, 64, kernel_size=(3, 3), stride=(1, 1), padding=(1, 1))
          (adn): ADN(
            (N): BatchNorm2d(64, eps=1e-05, momentum=0.1, affine=True, track_running_stats=True)
            (D): Dropout(p=0.0, inplace=False)
            (A): ReLU()
          )
        )
        (1): Convolution(
          (conv): Conv2d(64, 64, kernel_size=(3, 3), stride=(1, 1), padding=(1, 1))
          (adn): ADN(
            (N): BatchNorm2d(64, eps=1e-05, momentum=0.1, affine=True, track_running_stats=True)
            (D): Dropout(p=0.0, inplace=False)
            (A): ReLU()
          )
        )
      )
    )
    (1): AttentionLayer(
      (attention): AttentionBlock(
        (W_g): Sequential(
          (0): Convolution(
            (conv): Conv2d(64, 32, kernel_size=(1, 1), stride=(1, 1))
          )
          (1): BatchNorm2d(32, eps=1e-05, momentum=0.1, affine=True, track_running_stats=True)
        )
        (W_x): Sequential(
          (0): Convolution(
            (conv): Conv2d(64, 32, kernel_size=(1, 1), stride=(1, 1))
          )
          (1): BatchNorm2d(32, eps=1e-05, momentum=0.1, affine=True, track_running_stats=True)
        )
        (psi): Sequential(
          (0): Convolution(
            (conv): Conv2d(32, 1, kernel_size=(1, 1), stride=(1, 1))
          )
          (1): BatchNorm2d(1, eps=1e-05, momentum=0.1, affine=True, track_running_stats=True)
          (2): Sigmoid()
        )
        (relu): ReLU()
      )
      (upconv): UpConv(
        (up): Convolution(
          (conv): ConvTranspose2d(128, 64, kernel_size=(3, 3), stride=(2, 2), padding=(1, 1), output_padding=(1, 1))
          (adn): ADN(
            (N): BatchNorm2d(64, eps=1e-05, momentum=0.1, affine=True, track_running_stats=True)
            (D): Dropout(p=0.0, inplace=False)
            (A): ReLU()
          )
        )
      )
      (merge): Convolution(
        (conv): Conv2d(128, 64, kernel_size=(3, 3), stride=(1, 1), padding=(1, 1))
        (adn): ADN(
          (N): InstanceNorm2d(64, eps=1e-05, momentum=0.1, affine=False, track_running_stats=False)
          (D): Dropout(p=0.0, inplace=False)
          (A): PReLU(num_parameters=1)
        )
      )
      (submodule): Sequential(
        (0): ConvBlock(
          (conv): Sequential(
            (0): Convolution(
              (conv): Conv2d(64, 128, kernel_size=(3, 3), stride=(2, 2), padding=(1, 1))
              (adn): ADN(
                (N): BatchNorm2d(128, eps=1e-05, momentum=0.1, affine=True, track_running_stats=True)
                (D): Dropout(p=0.0, inplace=False)
                (A): ReLU()
              )
            )
            (1): Convolution(
              (conv): Conv2d(128, 128, kernel_size=(3, 3), stride=(1, 1), padding=(1, 1))
              (adn): ADN(
                (N): BatchNorm2d(128, eps=1e-05, momentum=0.1, affine=True, track_running_stats=True)
                (D): Dropout(p=0.0, inplace=False)
                (A): ReLU()
              )
            )
          )
        )
        (1): AttentionLayer(
          (attention): AttentionBlock(
            (W_g): Sequential(
              (0): Convolution(
                (conv): Conv2d(128, 64, kernel_size=(1, 1), stride=(1, 1))
              )
              (1): BatchNorm2d(64, eps=1e-05, momentum=0.1, affine=True, track_running_stats=True)
            )
            (W_x): Sequential(
              (0): Convolution(
                (conv): Conv2d(128, 64, kernel_size=(1, 1), stride=(1, 1))
              )
              (1): BatchNorm2d(64, eps=1e-05, momentum=0.1, affine=True, track_running_stats=True)
            )
            (psi): Sequential(
              (0): Convolution(
                (conv): Conv2d(64, 1, kernel_size=(1, 1), stride=(1, 1))
              )
              (1): BatchNorm2d(1, eps=1e-05, momentum=0.1, affine=True, track_running_stats=True)
              (2): Sigmoid()
            )
            (relu): ReLU()
          )
          (upconv): UpConv(
            (up): Convolution(
              (conv): ConvTranspose2d(256, 128, kernel_size=(3, 3), stride=(2, 2), padding=(1, 1), output_padding=(1, 1))
              (adn): ADN(
                (N): BatchNorm2d(128, eps=1e-05, momentum=0.1, affine=True, track_running_stats=True)
                (D): Dropout(p=0.0, inplace=False)
                (A): ReLU()
              )
            )
          )
          (merge): Convolution(
            (conv): Conv2d(256, 128, kernel_size=(3, 3), stride=(1, 1), padding=(1, 1))
            (adn): ADN(
              (N): InstanceNorm2d(128, eps=1e-05, momentum=0.1, affine=False, track_running_stats=False)
              (D): Dropout(p=0.0, inplace=False)
              (A): PReLU(num_parameters=1)
            )
          )
          (submodule): ConvBlock(
            (conv): Sequential(
              (0): Convolution(
                (conv): Conv2d(128, 256, kernel_size=(3, 3), stride=(2, 2), padding=(1, 1))
                (adn): ADN(
                  (N): BatchNorm2d(256, eps=1e-05, momentum=0.1, affine=True, track_running_stats=True)
                  (D): Dropout(p=0.0, inplace=False)
                  (A): ReLU()
                )
              )
              (1): Convolution(
                (conv): Conv2d(256, 256, kernel_size=(3, 3), stride=(1, 1), padding=(1, 1))
                (adn): ADN(
                  (N): BatchNorm2d(256, eps=1e-05, momentum=0.1, affine=True, track_running_stats=True)
                  (D): Dropout(p=0.0, inplace=False)
                  (A): ReLU()
                )
              )
            )
          )
        )
      )
    )
    (2): Convolution(
      (conv): Conv2d(64, 1, kernel_size=(1, 1), stride=(1, 1))
    )
  )
)",validation/AttentionUnet/AttentionUnet_22_2022-08-18.png,0.0
2022-08-18,"AttentionUnet(
  (model): Sequential(
    (0): ConvBlock(
      (conv): Sequential(
        (0): Convolution(
          (conv): Conv2d(1, 64, kernel_size=(3, 3), stride=(1, 1), padding=(1, 1))
          (adn): ADN(
            (N): BatchNorm2d(64, eps=1e-05, momentum=0.1, affine=True, track_running_stats=True)
            (D): Dropout(p=0.0, inplace=False)
            (A): ReLU()
          )
        )
        (1): Convolution(
          (conv): Conv2d(64, 64, kernel_size=(3, 3), stride=(1, 1), padding=(1, 1))
          (adn): ADN(
            (N): BatchNorm2d(64, eps=1e-05, momentum=0.1, affine=True, track_running_stats=True)
            (D): Dropout(p=0.0, inplace=False)
            (A): ReLU()
          )
        )
      )
    )
    (1): AttentionLayer(
      (attention): AttentionBlock(
        (W_g): Sequential(
          (0): Convolution(
            (conv): Conv2d(64, 32, kernel_size=(1, 1), stride=(1, 1))
          )
          (1): BatchNorm2d(32, eps=1e-05, momentum=0.1, affine=True, track_running_stats=True)
        )
        (W_x): Sequential(
          (0): Convolution(
            (conv): Conv2d(64, 32, kernel_size=(1, 1), stride=(1, 1))
          )
          (1): BatchNorm2d(32, eps=1e-05, momentum=0.1, affine=True, track_running_stats=True)
        )
        (psi): Sequential(
          (0): Convolution(
            (conv): Conv2d(32, 1, kernel_size=(1, 1), stride=(1, 1))
          )
          (1): BatchNorm2d(1, eps=1e-05, momentum=0.1, affine=True, track_running_stats=True)
          (2): Sigmoid()
        )
        (relu): ReLU()
      )
      (upconv): UpConv(
        (up): Convolution(
          (conv): ConvTranspose2d(128, 64, kernel_size=(3, 3), stride=(2, 2), padding=(1, 1), output_padding=(1, 1))
          (adn): ADN(
            (N): BatchNorm2d(64, eps=1e-05, momentum=0.1, affine=True, track_running_stats=True)
            (D): Dropout(p=0.0, inplace=False)
            (A): ReLU()
          )
        )
      )
      (merge): Convolution(
        (conv): Conv2d(128, 64, kernel_size=(3, 3), stride=(1, 1), padding=(1, 1))
        (adn): ADN(
          (N): InstanceNorm2d(64, eps=1e-05, momentum=0.1, affine=False, track_running_stats=False)
          (D): Dropout(p=0.0, inplace=False)
          (A): PReLU(num_parameters=1)
        )
      )
      (submodule): Sequential(
        (0): ConvBlock(
          (conv): Sequential(
            (0): Convolution(
              (conv): Conv2d(64, 128, kernel_size=(3, 3), stride=(2, 2), padding=(1, 1))
              (adn): ADN(
                (N): BatchNorm2d(128, eps=1e-05, momentum=0.1, affine=True, track_running_stats=True)
                (D): Dropout(p=0.0, inplace=False)
                (A): ReLU()
              )
            )
            (1): Convolution(
              (conv): Conv2d(128, 128, kernel_size=(3, 3), stride=(1, 1), padding=(1, 1))
              (adn): ADN(
                (N): BatchNorm2d(128, eps=1e-05, momentum=0.1, affine=True, track_running_stats=True)
                (D): Dropout(p=0.0, inplace=False)
                (A): ReLU()
              )
            )
          )
        )
        (1): AttentionLayer(
          (attention): AttentionBlock(
            (W_g): Sequential(
              (0): Convolution(
                (conv): Conv2d(128, 64, kernel_size=(1, 1), stride=(1, 1))
              )
              (1): BatchNorm2d(64, eps=1e-05, momentum=0.1, affine=True, track_running_stats=True)
            )
            (W_x): Sequential(
              (0): Convolution(
                (conv): Conv2d(128, 64, kernel_size=(1, 1), stride=(1, 1))
              )
              (1): BatchNorm2d(64, eps=1e-05, momentum=0.1, affine=True, track_running_stats=True)
            )
            (psi): Sequential(
              (0): Convolution(
                (conv): Conv2d(64, 1, kernel_size=(1, 1), stride=(1, 1))
              )
              (1): BatchNorm2d(1, eps=1e-05, momentum=0.1, affine=True, track_running_stats=True)
              (2): Sigmoid()
            )
            (relu): ReLU()
          )
          (upconv): UpConv(
            (up): Convolution(
              (conv): ConvTranspose2d(256, 128, kernel_size=(3, 3), stride=(2, 2), padding=(1, 1), output_padding=(1, 1))
              (adn): ADN(
                (N): BatchNorm2d(128, eps=1e-05, momentum=0.1, affine=True, track_running_stats=True)
                (D): Dropout(p=0.0, inplace=False)
                (A): ReLU()
              )
            )
          )
          (merge): Convolution(
            (conv): Conv2d(256, 128, kernel_size=(3, 3), stride=(1, 1), padding=(1, 1))
            (adn): ADN(
              (N): InstanceNorm2d(128, eps=1e-05, momentum=0.1, affine=False, track_running_stats=False)
              (D): Dropout(p=0.0, inplace=False)
              (A): PReLU(num_parameters=1)
            )
          )
          (submodule): ConvBlock(
            (conv): Sequential(
              (0): Convolution(
                (conv): Conv2d(128, 256, kernel_size=(3, 3), stride=(2, 2), padding=(1, 1))
                (adn): ADN(
                  (N): BatchNorm2d(256, eps=1e-05, momentum=0.1, affine=True, track_running_stats=True)
                  (D): Dropout(p=0.0, inplace=False)
                  (A): ReLU()
                )
              )
              (1): Convolution(
                (conv): Conv2d(256, 256, kernel_size=(3, 3), stride=(1, 1), padding=(1, 1))
                (adn): ADN(
                  (N): BatchNorm2d(256, eps=1e-05, momentum=0.1, affine=True, track_running_stats=True)
                  (D): Dropout(p=0.0, inplace=False)
                  (A): ReLU()
                )
              )
            )
          )
        )
      )
    )
    (2): Convolution(
      (conv): Conv2d(64, 1, kernel_size=(1, 1), stride=(1, 1))
    )
  )
)",validation/AttentionUnet/AttentionUnet_23_2022-08-18.png,0.0
2022-08-18,"AttentionUnet(
  (model): Sequential(
    (0): ConvBlock(
      (conv): Sequential(
        (0): Convolution(
          (conv): Conv2d(1, 64, kernel_size=(3, 3), stride=(1, 1), padding=(1, 1))
          (adn): ADN(
            (N): BatchNorm2d(64, eps=1e-05, momentum=0.1, affine=True, track_running_stats=True)
            (D): Dropout(p=0.0, inplace=False)
            (A): ReLU()
          )
        )
        (1): Convolution(
          (conv): Conv2d(64, 64, kernel_size=(3, 3), stride=(1, 1), padding=(1, 1))
          (adn): ADN(
            (N): BatchNorm2d(64, eps=1e-05, momentum=0.1, affine=True, track_running_stats=True)
            (D): Dropout(p=0.0, inplace=False)
            (A): ReLU()
          )
        )
      )
    )
    (1): AttentionLayer(
      (attention): AttentionBlock(
        (W_g): Sequential(
          (0): Convolution(
            (conv): Conv2d(64, 32, kernel_size=(1, 1), stride=(1, 1))
          )
          (1): BatchNorm2d(32, eps=1e-05, momentum=0.1, affine=True, track_running_stats=True)
        )
        (W_x): Sequential(
          (0): Convolution(
            (conv): Conv2d(64, 32, kernel_size=(1, 1), stride=(1, 1))
          )
          (1): BatchNorm2d(32, eps=1e-05, momentum=0.1, affine=True, track_running_stats=True)
        )
        (psi): Sequential(
          (0): Convolution(
            (conv): Conv2d(32, 1, kernel_size=(1, 1), stride=(1, 1))
          )
          (1): BatchNorm2d(1, eps=1e-05, momentum=0.1, affine=True, track_running_stats=True)
          (2): Sigmoid()
        )
        (relu): ReLU()
      )
      (upconv): UpConv(
        (up): Convolution(
          (conv): ConvTranspose2d(128, 64, kernel_size=(3, 3), stride=(2, 2), padding=(1, 1), output_padding=(1, 1))
          (adn): ADN(
            (N): BatchNorm2d(64, eps=1e-05, momentum=0.1, affine=True, track_running_stats=True)
            (D): Dropout(p=0.0, inplace=False)
            (A): ReLU()
          )
        )
      )
      (merge): Convolution(
        (conv): Conv2d(128, 64, kernel_size=(3, 3), stride=(1, 1), padding=(1, 1))
        (adn): ADN(
          (N): InstanceNorm2d(64, eps=1e-05, momentum=0.1, affine=False, track_running_stats=False)
          (D): Dropout(p=0.0, inplace=False)
          (A): PReLU(num_parameters=1)
        )
      )
      (submodule): Sequential(
        (0): ConvBlock(
          (conv): Sequential(
            (0): Convolution(
              (conv): Conv2d(64, 128, kernel_size=(3, 3), stride=(2, 2), padding=(1, 1))
              (adn): ADN(
                (N): BatchNorm2d(128, eps=1e-05, momentum=0.1, affine=True, track_running_stats=True)
                (D): Dropout(p=0.0, inplace=False)
                (A): ReLU()
              )
            )
            (1): Convolution(
              (conv): Conv2d(128, 128, kernel_size=(3, 3), stride=(1, 1), padding=(1, 1))
              (adn): ADN(
                (N): BatchNorm2d(128, eps=1e-05, momentum=0.1, affine=True, track_running_stats=True)
                (D): Dropout(p=0.0, inplace=False)
                (A): ReLU()
              )
            )
          )
        )
        (1): AttentionLayer(
          (attention): AttentionBlock(
            (W_g): Sequential(
              (0): Convolution(
                (conv): Conv2d(128, 64, kernel_size=(1, 1), stride=(1, 1))
              )
              (1): BatchNorm2d(64, eps=1e-05, momentum=0.1, affine=True, track_running_stats=True)
            )
            (W_x): Sequential(
              (0): Convolution(
                (conv): Conv2d(128, 64, kernel_size=(1, 1), stride=(1, 1))
              )
              (1): BatchNorm2d(64, eps=1e-05, momentum=0.1, affine=True, track_running_stats=True)
            )
            (psi): Sequential(
              (0): Convolution(
                (conv): Conv2d(64, 1, kernel_size=(1, 1), stride=(1, 1))
              )
              (1): BatchNorm2d(1, eps=1e-05, momentum=0.1, affine=True, track_running_stats=True)
              (2): Sigmoid()
            )
            (relu): ReLU()
          )
          (upconv): UpConv(
            (up): Convolution(
              (conv): ConvTranspose2d(256, 128, kernel_size=(3, 3), stride=(2, 2), padding=(1, 1), output_padding=(1, 1))
              (adn): ADN(
                (N): BatchNorm2d(128, eps=1e-05, momentum=0.1, affine=True, track_running_stats=True)
                (D): Dropout(p=0.0, inplace=False)
                (A): ReLU()
              )
            )
          )
          (merge): Convolution(
            (conv): Conv2d(256, 128, kernel_size=(3, 3), stride=(1, 1), padding=(1, 1))
            (adn): ADN(
              (N): InstanceNorm2d(128, eps=1e-05, momentum=0.1, affine=False, track_running_stats=False)
              (D): Dropout(p=0.0, inplace=False)
              (A): PReLU(num_parameters=1)
            )
          )
          (submodule): ConvBlock(
            (conv): Sequential(
              (0): Convolution(
                (conv): Conv2d(128, 256, kernel_size=(3, 3), stride=(2, 2), padding=(1, 1))
                (adn): ADN(
                  (N): BatchNorm2d(256, eps=1e-05, momentum=0.1, affine=True, track_running_stats=True)
                  (D): Dropout(p=0.0, inplace=False)
                  (A): ReLU()
                )
              )
              (1): Convolution(
                (conv): Conv2d(256, 256, kernel_size=(3, 3), stride=(1, 1), padding=(1, 1))
                (adn): ADN(
                  (N): BatchNorm2d(256, eps=1e-05, momentum=0.1, affine=True, track_running_stats=True)
                  (D): Dropout(p=0.0, inplace=False)
                  (A): ReLU()
                )
              )
            )
          )
        )
      )
    )
    (2): Convolution(
      (conv): Conv2d(64, 1, kernel_size=(1, 1), stride=(1, 1))
    )
  )
)",validation/AttentionUnet/AttentionUnet_24_2022-08-18.png,0.43104836344718933
2022-08-18,"AttentionUnet(
  (model): Sequential(
    (0): ConvBlock(
      (conv): Sequential(
        (0): Convolution(
          (conv): Conv2d(1, 64, kernel_size=(3, 3), stride=(1, 1), padding=(1, 1))
          (adn): ADN(
            (N): BatchNorm2d(64, eps=1e-05, momentum=0.1, affine=True, track_running_stats=True)
            (D): Dropout(p=0.0, inplace=False)
            (A): ReLU()
          )
        )
        (1): Convolution(
          (conv): Conv2d(64, 64, kernel_size=(3, 3), stride=(1, 1), padding=(1, 1))
          (adn): ADN(
            (N): BatchNorm2d(64, eps=1e-05, momentum=0.1, affine=True, track_running_stats=True)
            (D): Dropout(p=0.0, inplace=False)
            (A): ReLU()
          )
        )
      )
    )
    (1): AttentionLayer(
      (attention): AttentionBlock(
        (W_g): Sequential(
          (0): Convolution(
            (conv): Conv2d(64, 32, kernel_size=(1, 1), stride=(1, 1))
          )
          (1): BatchNorm2d(32, eps=1e-05, momentum=0.1, affine=True, track_running_stats=True)
        )
        (W_x): Sequential(
          (0): Convolution(
            (conv): Conv2d(64, 32, kernel_size=(1, 1), stride=(1, 1))
          )
          (1): BatchNorm2d(32, eps=1e-05, momentum=0.1, affine=True, track_running_stats=True)
        )
        (psi): Sequential(
          (0): Convolution(
            (conv): Conv2d(32, 1, kernel_size=(1, 1), stride=(1, 1))
          )
          (1): BatchNorm2d(1, eps=1e-05, momentum=0.1, affine=True, track_running_stats=True)
          (2): Sigmoid()
        )
        (relu): ReLU()
      )
      (upconv): UpConv(
        (up): Convolution(
          (conv): ConvTranspose2d(128, 64, kernel_size=(3, 3), stride=(2, 2), padding=(1, 1), output_padding=(1, 1))
          (adn): ADN(
            (N): BatchNorm2d(64, eps=1e-05, momentum=0.1, affine=True, track_running_stats=True)
            (D): Dropout(p=0.0, inplace=False)
            (A): ReLU()
          )
        )
      )
      (merge): Convolution(
        (conv): Conv2d(128, 64, kernel_size=(3, 3), stride=(1, 1), padding=(1, 1))
        (adn): ADN(
          (N): InstanceNorm2d(64, eps=1e-05, momentum=0.1, affine=False, track_running_stats=False)
          (D): Dropout(p=0.0, inplace=False)
          (A): PReLU(num_parameters=1)
        )
      )
      (submodule): Sequential(
        (0): ConvBlock(
          (conv): Sequential(
            (0): Convolution(
              (conv): Conv2d(64, 128, kernel_size=(3, 3), stride=(2, 2), padding=(1, 1))
              (adn): ADN(
…
      (1): ResidualUnit(
        (conv): Sequential(
          (unit0): Convolution(
            (conv): Conv2d(1, 1, kernel_size=(3, 3), stride=(1, 1), padding=(1, 1))
          )
        )
        (residual): Identity()
      )
    )
  )
)",validation/UNet/UNet_26_2022-08-18.png,0.00015354971401393414
2022-08-18,"UNet(
  (model): Sequential(
    (0): ResidualUnit(
      (conv): Sequential(
        (unit0): Convolution(
          (conv): Conv2d(1, 64, kernel_size=(3, 3), stride=(2, 2), padding=(1, 1))
          (adn): ADN(
            (N): InstanceNorm2d(64, eps=1e-05, momentum=0.1, affine=False, track_running_stats=False)
            (D): Dropout(p=0.0, inplace=False)
            (A): PReLU(num_parameters=1)
          )
        )
        (unit1): Convolution(
          (conv): Conv2d(64, 64, kernel_size=(3, 3), stride=(1, 1), padding=(1, 1))
          (adn): ADN(
            (N): InstanceNorm2d(64, eps=1e-05, momentum=0.1, affine=False, track_running_stats=False)
            (D): Dropout(p=0.0, inplace=False)
            (A): PReLU(num_parameters=1)
          )
        )
      )
      (residual): Conv2d(1, 64, kernel_size=(3, 3), stride=(2, 2), padding=(1, 1))
    )
    (1): SkipConnection(
      (submodule): Sequential(
        (0): ResidualUnit(
          (conv): Sequential(
            (unit0): Convolution(
              (conv): Conv2d(64, 128, kernel_size=(3, 3), stride=(2, 2), padding=(1, 1))
              (adn): ADN(
                (N): InstanceNorm2d(128, eps=1e-05, momentum=0.1, affine=False, track_running_stats=False)
                (D): Dropout(p=0.0, inplace=False)
                (A): PReLU(num_parameters=1)
              )
            )
            (unit1): Convolution(
              (conv): Conv2d(128, 128, kernel_size=(3, 3), stride=(1, 1), padding=(1, 1))
              (adn): ADN(
                (N): InstanceNorm2d(128, eps=1e-05, momentum=0.1, affine=False, track_running_stats=False)
                (D): Dropout(p=0.0, inplace=False)
                (A): PReLU(num_parameters=1)
              )
            )
          )
          (residual): Conv2d(64, 128, kernel_size=(3, 3), stride=(2, 2), padding=(1, 1))
        )
        (1): SkipConnection(
          (submodule): ResidualUnit(
            (conv): Sequential(
              (unit0): Convolution(
                (conv): Conv2d(128, 256, kernel_size=(3, 3), stride=(1, 1), padding=(1, 1))
                (adn): ADN(
                  (N): InstanceNorm2d(256, eps=1e-05, momentum=0.1, affine=False, track_running_stats=False)
                  (D): Dropout(p=0.0, inplace=False)
                  (A): PReLU(num_parameters=1)
                )
              )
              (unit1): Convolution(
                (conv): Conv2d(256, 256, kernel_size=(3, 3), stride=(1, 1), padding=(1, 1))
                (adn): ADN(
                  (N): InstanceNorm2d(256, eps=1e-05, momentum=0.1, affine=False, track_running_stats=False)
                  (D): Dropout(p=0.0, inplace=False)
                  (A): PReLU(num_parameters=1)
                )
              )
            )
            (residual): Conv2d(128, 256, kernel_size=(1, 1), stride=(1, 1))
          )
        )
        (2): Sequential(
          (0): Convolution(
            (conv): ConvTranspose2d(384, 64, kernel_size=(3, 3), stride=(2, 2), padding=(1, 1), output_padding=(1, 1))
            (adn): ADN(
              (N): InstanceNorm2d(64, eps=1e-05, momentum=0.1, affine=False, track_running_stats=False)
              (D): Dropout(p=0.0, inplace=False)
              (A): PReLU(num_parameters=1)
            )
          )
          (1): ResidualUnit(
            (conv): Sequential(
              (unit0): Convolution(
                (conv): Conv2d(64, 64, kernel_size=(3, 3), stride=(1, 1), padding=(1, 1))
                (adn): ADN(
                  (N): InstanceNorm2d(64, eps=1e-05, momentum=0.1, affine=False, track_running_stats=False)
                  (D): Dropout(p=0.0, inplace=False)
                  (A): PReLU(num_parameters=1)
                )
              )
            )
            (residual): Identity()
          )
        )
      )
    )
    (2): Sequential(
      (0): Convolution(
        (conv): ConvTranspose2d(128, 1, kernel_size=(3, 3), stride=(2, 2), padding=(1, 1), output_padding=(1, 1))
        (adn): ADN(
          (N): InstanceNorm2d(1, eps=1e-05, momentum=0.1, affine=False, track_running_stats=False)
          (D): Dropout(p=0.0, inplace=False)
          (A): PReLU(num_parameters=1)
        )
      )
      (1): ResidualUnit(
        (conv): Sequential(
          (unit0): Convolution(
            (conv): Conv2d(1, 1, kernel_size=(3, 3), stride=(1, 1), padding=(1, 1))
          )
        )
        (residual): Identity()
      )
    )
  )
)",validation/UNet/UNet_27_2022-08-18.png,0.000132922621560283
2022-08-18,"UNet(
  (model): Sequential(
    (0): ResidualUnit(
      (conv): Sequential(
        (unit0): Convolution(
          (conv): Conv2d(1, 64, kernel_size=(3, 3), stride=(2, 2), padding=(1, 1))
          (adn): ADN(
            (N): InstanceNorm2d(64, eps=1e-05, momentum=0.1, affine=False, track_running_stats=False)
            (D): Dropout(p=0.0, inplace=False)
            (A): PReLU(num_parameters=1)
          )
        )
        (unit1): Convolution(
          (conv): Conv2d(64, 64, kernel_size=(3, 3), stride=(1, 1), padding=(1, 1))
          (adn): ADN(
            (N): InstanceNorm2d(64, eps=1e-05, momentum=0.1, affine=False, track_running_stats=False)
            (D): Dropout(p=0.0, inplace=False)
            (A): PReLU(num_parameters=1)
          )
        )
      )
      (residual): Conv2d(1, 64, kernel_size=(3, 3), stride=(2, 2), padding=(1, 1))
    )
    (1): SkipConnection(
      (submodule): Sequential(
        (0): ResidualUnit(
          (conv): Sequential(
            (unit0): Convolution(
              (conv): Conv2d(64, 128, kernel_size=(3, 3), stride=(2, 2), padding=(1, 1))
              (adn): ADN(
                (N): InstanceNorm2d(128, eps=1e-05, momentum=0.1, affine=False, track_running_stats=False)
                (D): Dropout(p=0.0, inplace=False)
                (A): PReLU(num_parameters=1)
              )
            )
            (unit1): Convolution(
              (conv): Conv2d(128, 128, kernel_size=(3, 3), stride=(1, 1), padding=(1, 1))
              (adn): ADN(
                (N): InstanceNorm2d(128, eps=1e-05, momentum=0.1, affine=False, track_running_stats=False)
                (D): Dropout(p=0.0, inplace=False)
                (A): PReLU(num_parameters=1)
              )
            )
          )
          (residual): Conv2d(64, 128, kernel_size=(3, 3), stride=(2, 2), padding=(1, 1))
        )
        (1): SkipConnection(
          (submodule): ResidualUnit(
            (conv): Sequential(
              (unit0): Convolution(
                (conv): Conv2d(128, 256, kernel_size=(3, 3), stride=(1, 1), padding=(1, 1))
                (adn): ADN(
                  (N): InstanceNorm2d(256, eps=1e-05, momentum=0.1, affine=False, track_running_stats=False)
                  (D): Dropout(p=0.0, inplace=False)
                  (A): PReLU(num_parameters=1)
                )
              )
              (unit1): Convolution(
                (conv): Conv2d(256, 256, kernel_size=(3, 3), stride=(1, 1), padding=(1, 1))
                (adn): ADN(
                  (N): InstanceNorm2d(256, eps=1e-05, momentum=0.1, affine=False, track_running_stats=False)
                  (D): Dropout(p=0.0, inplace=False)
                  (A): PReLU(num_parameters=1)
                )
              )
            )
            (residual): Conv2d(128, 256, kernel_size=(1, 1), stride=(1, 1))
          )
        )
        (2): Sequential(
          (0): Convolution(
            (conv): ConvTranspose2d(384, 64, kernel_size=(3, 3), stride=(2, 2), padding=(1, 1), output_padding=(1, 1))
            (adn): ADN(
              (N): InstanceNorm2d(64, eps=1e-05, momentum=0.1, affine=False, track_running_stats=False)
              (D): Dropout(p=0.0, inplace=False)
              (A): PReLU(num_parameters=1)
            )
          )
          (1): ResidualUnit(
            (conv): Sequential(
              (unit0): Convolution(
                (conv): Conv2d(64, 64, kernel_size=(3, 3), stride=(1, 1), padding=(1, 1))
                (adn): ADN(
                  (N): InstanceNorm2d(64, eps=1e-05, momentum=0.1, affine=False, track_running_stats=False)
                  (D): Dropout(p=0.0, inplace=False)
                  (A): PReLU(num_parameters=1)
                )
              )
            )
            (residual): Identity()
          )
        )
      )
    )
    (2): Sequential(
      (0): Convolution(
        (conv): ConvTranspose2d(128, 1, kernel_size=(3, 3), stride=(2, 2), padding=(1, 1), output_padding=(1, 1))
        (adn): ADN(
          (N): InstanceNorm2d(1, eps=1e-05, momentum=0.1, affine=False, track_running_stats=False)
          (D): Dropout(p=0.0, inplace=False)
          (A): PReLU(num_parameters=1)
        )
      )
      (1): ResidualUnit(
        (conv): Sequential(
          (unit0): Convolution(
            (conv): Conv2d(1, 1, kernel_size=(3, 3), stride=(1, 1), padding=(1, 1))
          )
        )
        (residual): Identity()
      )
    )
  )
)",validation/UNet/UNet_28_2022-08-18.png,1.2185614650661591e-05
2022-08-18,"UNet(
  (model): Sequential(
    (0): ResidualUnit(
      (conv): Sequential(
        (unit0): Convolution(
          (conv): Conv2d(1, 64, kernel_size=(3, 3), stride=(2, 2), padding=(1, 1))
          (adn): ADN(
            (N): InstanceNorm2d(64, eps=1e-05, momentum=0.1, affine=False, track_running_stats=False)
            (D): Dropout(p=0.0, inplace=False)
            (A): PReLU(num_parameters=1)
          )
        )
        (unit1): Convolution(
          (conv): Conv2d(64, 64, kernel_size=(3, 3), stride=(1, 1), padding=(1, 1))
          (adn): ADN(
            (N): InstanceNorm2d(64, eps=1e-05, momentum=0.1, affine=False, track_running_stats=False)
            (D): Dropout(p=0.0, inplace=False)
            (A): PReLU(num_parameters=1)
          )
        )
      )
      (residual): Conv2d(1, 64, kernel_size=(3, 3), stride=(2, 2), padding=(1, 1))
    )
    (1): SkipConnection(
      (submodule): Sequential(
        (0): ResidualUnit(
          (conv): Sequential(
            (unit0): Convolution(
              (conv): Conv2d(64, 128, kernel_size=(3, 3), stride=(2, 2), padding=(1, 1))
              (adn): ADN(
                (N): InstanceNorm2d(128, eps=1e-05, momentum=0.1, affine=False, track_running_stats=False)
                (D): Dropout(p=0.0, inplace=False)
                (A): PReLU(num_parameters=1)
              )
            )
            (unit1): Convolution(
              (conv): Conv2d(128, 128, kernel_size=(3, 3), stride=(1, 1), padding=(1, 1))
              (adn): ADN(
                (N): InstanceNorm2d(128, eps=1e-05, momentum=0.1, affine=False, track_running_stats=False)
                (D): Dropout(p=0.0, inplace=False)
                (A): PReLU(num_parameters=1)
              )
            )
          )
          (residual): Conv2d(64, 128, kernel_size=(3, 3), stride=(2, 2), padding=(1, 1))
        )
        (1): SkipConnection(
          (submodule): ResidualUnit(
            (conv): Sequential(
              (unit0): Convolution(
                (conv): Conv2d(128, 256, kernel_size=(3, 3), stride=(1, 1), padding=(1, 1))
                (adn): ADN(
                  (N): InstanceNorm2d(256, eps=1e-05, momentum=0.1, affine=False, track_running_stats=False)
                  (D): Dropout(p=0.0, inplace=False)
                  (A): PReLU(num_parameters=1)
                )
              )
              (unit1): Convolution(
                (conv): Conv2d(256, 256, kernel_size=(3, 3), stride=(1, 1), padding=(1, 1))
                (adn): ADN(
                  (N): InstanceNorm2d(256, eps=1e-05, momentum=0.1, affine=False, track_running_stats=False)
                  (D): Dropout(p=0.0, inplace=False)
                  (A): PReLU(num_parameters=1)
                )
              )
            )
            (residual): Conv2d(128, 256, kernel_size=(1, 1), stride=(1, 1))
          )
        )
        (2): Sequential(
          (0): Convolution(
            (conv): ConvTranspose2d(384, 64, kernel_size=(3, 3), stride=(2, 2), padding=(1, 1), output_padding=(1, 1))
            (adn): ADN(
              (N): InstanceNorm2d(64, eps=1e-05, momentum=0.1, affine=False, track_running_stats=False)
              (D): Dropout(p=0.0, inplace=False)
              (A): PReLU(num_parameters=1)
            )
          )
          (1): ResidualUnit(
            (conv): Sequential(
              (unit0): Convolution(
                (conv): Conv2d(64, 64, kernel_size=(3, 3), stride=(1, 1), padding=(1, 1))
                (adn): ADN(
                  (N): InstanceNorm2d(64, eps=1e-05, momentum=0.1, affine=False, track_running_stats=False)
                  (D): Dropout(p=0.0, inplace=False)
                  (A): PReLU(num_parameters=1)
                )
              )
            )
            (residual): Identity()
          )
        )
      )
    )
    (2): Sequential(
      (0): Convolution(
        (conv): ConvTranspose2d(128, 1, kernel_size=(3, 3), stride=(2, 2), padding=(1, 1), output_padding=(1, 1))
        (adn): ADN(
          (N): InstanceNorm2d(1, eps=1e-05, momentum=0.1, affine=False, track_running_stats=False)
          (D): Dropout(p=0.0, inplace=False)
          (A): PReLU(num_parameters=1)
        )
      )
      (1): ResidualUnit(
        (conv): Sequential(
          (unit0): Convolution(
            (conv): Conv2d(1, 1, kernel_size=(3, 3), stride=(1, 1), padding=(1, 1))
          )
        )
        (residual): Identity()
      )
    )
  )
)",validation/UNet/UNet_29_2022-08-18.png,0.00035542325349524617
2022-08-18,"UNet(
  (model): Sequential(
    (0): ResidualUnit(
      (conv): Sequential(
        (unit0): Convolution(
          (conv): Conv2d(1, 64, kernel_size=(3, 3), stride=(2, 2), padding=(1, 1))
          (adn): ADN(
            (N): InstanceNorm2d(64, eps=1e-05, momentum=0.1, affine=False, track_running_stats=False)
            (D): Dropout(p=0.0, inplace=False)
            (A): PReLU(num_parameters=1)
          )
        )
        (unit1): Convolution(
          (conv): Conv2d(64, 64, kernel_size=(3, 3), stride=(1, 1), padding=(1, 1))
          (adn): ADN(
            (N): InstanceNorm2d(64, eps=1e-05, momentum=0.1, affine=False, track_running_stats=False)
            (D): Dropout(p=0.0, inplace=False)
            (A): PReLU(num_parameters=1)
          )
        )
      )
      (residual): Conv2d(1, 64, kernel_size=(3, 3), stride=(2, 2), padding=(1, 1))
    )
    (1): SkipConnection(
      (submodule): Sequential(
        (0): ResidualUnit(
          (conv): Sequential(
            (unit0): Convolution(
              (conv): Conv2d(64, 128, kernel_size=(3, 3), stride=(2, 2), padding=(1, 1))
              (adn): ADN(
                (N): InstanceNorm2d(128, eps=1e-05, momentum=0.1, affine=False, track_running_stats=False)
                (D): Dropout(p=0.0, inplace=False)
                (A): PReLU(num_parameters=1)
              )
            )
            (unit1): Convolution(
              (conv): Conv2d(128, 128, kernel_size=(3, 3), stride=(1, 1), padding=(1, 1))
              (adn): ADN(
                (N): InstanceNorm2d(128, eps=1e-05, momentum=0.1, affine=False, track_running_stats=False)
                (D): Dropout(p=0.0, inplace=False)
                (A): PReLU(num_parameters=1)
              )
            )
          )
          (residual): Conv2d(64, 128, kernel_size=(3, 3), stride=(2, 2), padding=(1, 1))
        )
        (1): SkipConnection(
          (submodule): ResidualUnit(
            (conv): Sequential(
              (unit0): Convolution(
                (conv): Conv2d(128, 256, kernel_size=(3, 3), stride=(1, 1), padding=(1, 1))
                (adn): ADN(
                  (N): InstanceNorm2d(256, eps=1e-05, momentum=0.1, affine=False, track_running_stats=False)
                  (D): Dropout(p=0.0, inplace=False)
                  (A): PReLU(num_parameters=1)
                )
              )
              (unit1): Convolution(
                (conv): Conv2d(256, 256, kernel_size=(3, 3), stride=(1, 1), padding=(1, 1))
                (adn): ADN(
                  (N): InstanceNorm2d(256, eps=1e-05, momentum=0.1, affine=False, track_running_stats=False)
                  (D): Dropout(p=0.0, inplace=False)
                  (A): PReLU(num_parameters=1)
                )
              )
            )
            (residual): Conv2d(128, 256, kernel_size=(1, 1), stride=(1, 1))
          )
        )
        (2): Sequential(
          (0): Convolution(
            (conv): ConvTranspose2d(384, 64, kernel_size=(3, 3), stride=(2, 2), padding=(1, 1), output_padding=(1, 1))
            (adn): ADN(
              (N): InstanceNorm2d(64, eps=1e-05, momentum=0.1, affine=False, track_running_stats=False)
              (D): Dropout(p=0.0, inplace=False)
              (A): PReLU(num_parameters=1)
            )
          )
          (1): ResidualUnit(
            (conv): Sequential(
              (unit0): Convolution(
                (conv): Conv2d(64, 64, kernel_size=(3, 3), stride=(1, 1), padding=(1, 1))
                (adn): ADN(
                  (N): InstanceNorm2d(64, eps=1e-05, momentum=0.1, affine=False, track_running_stats=False)
                  (D): Dropout(p=0.0, inplace=False)
                  (A): PReLU(num_parameters=1)
                )
              )
            )
            (residual): Identity()
          )
        )
      )
    )
    (2): Sequential(
      (0): Convolution(
        (conv): ConvTranspose2d(128, 1, kernel_size=(3, 3), stride=(2, 2), padding=(1, 1), output_padding=(1, 1))
        (adn): ADN(
          (N): InstanceNorm2d(1, eps=1e-05, momentum=0.1, affine=False, track_running_stats=False)
          (D): Dropout(p=0.0, inplace=False)
          (A): PReLU(num_parameters=1)
        )
      )
      (1): ResidualUnit(
        (conv): Sequential(
          (unit0): Convolution(
            (conv): Conv2d(1, 1, kernel_size=(3, 3), stride=(1, 1), padding=(1, 1))
          )
        )
        (residual): Identity()
      )
    )
  )
)",validation/UNet/UNet_30_2022-08-18.png,0.00015739515947643667
2022-08-18,"UNet(
  (model): Sequential(
    (0): ResidualUnit(
      (conv): Sequential(
        (unit0): Convolution(
          (conv): Conv2d(1, 64, kernel_size=(3, 3), stride=(2, 2), padding=(1, 1))
          (adn): ADN(
            (N): InstanceNorm2d(64, eps=1e-05, momentum=0.1, affine=False, track_running_stats=False)
            (D): Dropout(p=0.0, inplace=False)
            (A): PReLU(num_parameters=1)
          )
        )
        (unit1): Convolution(
          (conv): Conv2d(64, 64, kernel_size=(3, 3), stride=(1, 1), padding=(1, 1))
          (adn): ADN(
            (N): InstanceNorm2d(64, eps=1e-05, momentum=0.1, affine=False, track_running_stats=False)
            (D): Dropout(p=0.0, inplace=False)
            (A): PReLU(num_parameters=1)
          )
        )
      )
      (residual): Conv2d(1, 64, kernel_size=(3, 3), stride=(2, 2), padding=(1, 1))
    )
    (1): SkipConnection(
      (submodule): Sequential(
        (0): ResidualUnit(
          (conv): Sequential(
            (unit0): Convolution(
              (conv): Conv2d(64, 128, kernel_size=(3, 3), stride=(2, 2), padding=(1, 1))
              (adn): ADN(
                (N): InstanceNorm2d(128, eps=1e-05, momentum=0.1, affine=False, track_running_stats=False)
                (D): Dropout(p=0.0, inplace=False)
                (A): PReLU(num_parameters=1)
              )
            )
            (unit1): Convolution(
              (conv): Conv2d(128, 128, kernel_size=(3, 3), stride=(1, 1), padding=(1, 1))
              (adn): ADN(
                (N): InstanceNorm2d(128, eps=1e-05, momentum=0.1, affine=False, track_running_stats=False)
                (D): Dropout(p=0.0, inplace=False)
                (A): PReLU(num_parameters=1)
              )
            )
          )
          (residual): Conv2d(64, 128, kernel_size=(3, 3), stride=(2, 2), padding=(1, 1))
        )
        (1): SkipConnection(
          (submodule): ResidualUnit(
            (conv): Sequential(
              (unit0): Convolution(
                (conv): Conv2d(128, 256, kernel_size=(3, 3), stride=(1, 1), padding=(1, 1))
                (adn): ADN(
                  (N): InstanceNorm2d(256, eps=1e-05, momentum=0.1, affine=False, track_running_stats=False)
                  (D): Dropout(p=0.0, inplace=False)
                  (A): PReLU(num_parameters=1)
                )
              )
              (unit1): Convolution(
                (conv): Conv2d(256, 256, kernel_size=(3, 3), stride=(1, 1), padding=(1, 1))
                (adn): ADN(
                  (N): InstanceNorm2d(256, eps=1e-05, momentum=0.1, affine=False, track_running_stats=False)
                  (D): Dropout(p=0.0, inplace=False)
                  (A): PReLU(num_parameters=1)
                )
              )
            )
            (residual): Conv2d(128, 256, kernel_size=(1, 1), stride=(1, 1))
          )
        )
        (2): Sequential(
          (0): Convolution(
            (conv): ConvTranspose2d(384, 64, kernel_size=(3, 3), stride=(2, 2), padding=(1, 1), output_padding=(1, 1))
            (adn): ADN(
              (N): InstanceNorm2d(64, eps=1e-05, momentum=0.1, affine=False, track_running_stats=False)
              (D): Dropout(p=0.0, inplace=False)
              (A): PReLU(num_parameters=1)
            )
          )
          (1): ResidualUnit(
            (conv): Sequential(
              (unit0): Convolution(
                (conv): Conv2d(64, 64, kernel_size=(3, 3), stride=(1, 1), padding=(1, 1))
                (adn): ADN(
                  (N): InstanceNorm2d(64, eps=1e-05, momentum=0.1, affine=False, track_running_stats=False)
                  (D): Dropout(p=0.0, inplace=False)
                  (A): PReLU(num_parameters=1)
                )
              )
            )
            (residual): Identity()
          )
        )
      )
    )
    (2): Sequential(
      (0): Convolution(
        (conv): ConvTranspose2d(128, 1, kernel_size=(3, 3), stride=(2, 2), padding=(1, 1), output_padding=(1, 1))
        (adn): ADN(
          (N): InstanceNorm2d(1, eps=1e-05, momentum=0.1, affine=False, track_running_stats=False)
          (D): Dropout(p=0.0, inplace=False)
          (A): PReLU(num_parameters=1)
        )
      )
      (1): ResidualUnit(
        (conv): Sequential(
          (unit0): Convolution(
            (conv): Conv2d(1, 1, kernel_size=(3, 3), stride=(1, 1), padding=(1, 1))
          )
        )
        (residual): Identity()
      )
    )
  )
)",validation/UNet/UNet_31_2022-08-18.png,0.0
2022-08-18,"UNet(
  (model): Sequential(
    (0): ResidualUnit(
      (conv): Sequential(
        (unit0): Convolution(
          (conv): Conv2d(1, 64, kernel_size=(3, 3), stride=(2, 2), padding=(1, 1))
          (adn): ADN(
            (N): InstanceNorm2d(64, eps=1e-05, momentum=0.1, affine=False, track_running_stats=False)
            (D): Dropout(p=0.0, inplace=False)
            (A): PReLU(num_parameters=1)
          )
        )
        (unit1): Convolution(
          (conv): Conv2d(64, 64, kernel_size=(3, 3), stride=(1, 1), padding=(1, 1))
          (adn): ADN(
            (N): InstanceNorm2d(64, eps=1e-05, momentum=0.1, affine=False, track_running_stats=False)
            (D): Dropout(p=0.0, inplace=False)
            (A): PReLU(num_parameters=1)
          )
        )
      )
      (residual): Conv2d(1, 64, kernel_size=(3, 3), stride=(2, 2), padding=(1, 1))
    )
    (1): SkipConnection(
      (submodule): Sequential(
        (0): ResidualUnit(
          (conv): Sequential(
            (unit0): Convolution(
              (conv): Conv2d(64, 128, kernel_size=(3, 3), stride=(2, 2), padding=(1, 1))
              (adn): ADN(
                (N): InstanceNorm2d(128, eps=1e-05, momentum=0.1, affine=False, track_running_stats=False)
                (D): Dropout(p=0.0, inplace=False)
                (A): PReLU(num_parameters=1)
              )
            )
            (unit1): Convolution(
              (conv): Conv2d(128, 128, kernel_size=(3, 3), stride=(1, 1), padding=(1, 1))
              (adn): ADN(
                (N): InstanceNorm2d(128, eps=1e-05, momentum=0.1, affine=False, track_running_stats=False)
                (D): Dropout(p=0.0, inplace=False)
                (A): PReLU(num_parameters=1)
              )
            )
          )
          (residual): Conv2d(64, 128, kernel_size=(3, 3), stride=(2, 2), padding=(1, 1))
        )
        (1): SkipConnection(
          (submodule): ResidualUnit(
            (conv): Sequential(
              (unit0): Convolution(
                (conv): Conv2d(128, 256, kernel_size=(3, 3), stride=(1, 1), padding=(1, 1))
                (adn): ADN(
                  (N): InstanceNorm2d(256, eps=1e-05, momentum=0.1, affine=False, track_running_stats=False)
                  (D): Dropout(p=0.0, inplace=False)
                  (A): PReLU(num_parameters=1)
                )
              )
              (unit1): Convolution(
                (conv): Conv2d(256, 256, kernel_size=(3, 3), stride=(1, 1), padding=(1, 1))
                (adn): ADN(
                  (N): InstanceNorm2d(256, eps=1e-05, momentum=0.1, affine=False, track_running_stats=False)
                  (D): Dropout(p=0.0, inplace=False)
                  (A): PReLU(num_parameters=1)
                )
              )
            )
            (residual): Conv2d(128, 256, kernel_size=(1, 1), stride=(1, 1))
          )
        )
        (2): Sequential(
          (0): Convolution(
            (conv): ConvTranspose2d(384, 64, kernel_size=(3, 3), stride=(2, 2), padding=(1, 1), output_padding=(1, 1))
            (adn): ADN(
              (N): InstanceNorm2d(64, eps=1e-05, momentum=0.1, affine=False, track_running_stats=False)
              (D): Dropout(p=0.0, inplace=False)
              (A): PReLU(num_parameters=1)
            )
          )
          (1): ResidualUnit(
            (conv): Sequential(
              (unit0): Convolution(
                (conv): Conv2d(64, 64, kernel_size=(3, 3), stride=(1, 1), padding=(1, 1))
                (adn): ADN(
                  (N): InstanceNorm2d(64, eps=1e-05, momentum=0.1, affine=False, track_running_stats=False)
                  (D): Dropout(p=0.0, inplace=False)
                  (A): PReLU(num_parameters=1)
                )
              )
            )
            (residual): Identity()
          )
        )
      )
    )
    (2): Sequential(
      (0): Convolution(
        (conv): ConvTranspose2d(128, 1, kernel_size=(3, 3), stride=(2, 2), padding=(1, 1), output_padding=(1, 1))
        (adn): ADN(
          (N): InstanceNorm2d(1, eps=1e-05, momentum=0.1, affine=False, track_running_stats=False)
          (D): Dropout(p=0.0, inplace=False)
          (A): PReLU(num_parameters=1)
        )
      )
      (1): ResidualUnit(
        (conv): Sequential(
          (unit0): Convolution(
            (conv): Conv2d(1, 1, kernel_size=(3, 3), stride=(1, 1), padding=(1, 1))
          )
        )
        (residual): Identity()
      )
    )
  )
)",validation/UNet/UNet_32_2022-08-18.png,0.002021233318373561
2022-08-18,"UNet(
  (model): Sequential(
    (0): ResidualUnit(
      (conv): Sequential(
        (unit0): Convolution(
          (conv): Conv2d(1, 64, kernel_size=(3, 3), stride=(2, 2), padding=(1, 1))
          (adn): ADN(
            (N): InstanceNorm2d(64, eps=1e-05, momentum=0.1, affine=False, track_running_stats=False)
            (D): Dropout(p=0.0, inplace=False)
            (A): PReLU(num_parameters=1)
          )
        )
        (unit1): Convolution(
          (conv): Conv2d(64, 64, kernel_size=(3, 3), stride=(1, 1), padding=(1, 1))
          (adn): ADN(
            (N): InstanceNorm2d(64, eps=1e-05, momentum=0.1, affine=False, track_running_stats=False)
            (D): Dropout(p=0.0, inplace=False)
            (A): PReLU(num_parameters=1)
          )
        )
      )
      (residual): Conv2d(1, 64, kernel_size=(3, 3), stride=(2, 2), padding=(1, 1))
    )
    (1): SkipConnection(
      (submodule): Sequential(
        (0): ResidualUnit(
          (conv): Sequential(
            (unit0): Convolution(
              (conv): Conv2d(64, 128, kernel_size=(3, 3), stride=(2, 2), padding=(1, 1))
              (adn): ADN(
                (N): InstanceNorm2d(128, eps=1e-05, momentum=0.1, affine=False, track_running_stats=False)
                (D): Dropout(p=0.0, inplace=False)
                (A): PReLU(num_parameters=1)
              )
            )
            (unit1): Convolution(
              (conv): Conv2d(128, 128, kernel_size=(3, 3), stride=(1, 1), padding=(1, 1))
              (adn): ADN(
                (N): InstanceNorm2d(128, eps=1e-05, momentum=0.1, affine=False, track_running_stats=False)
                (D): Dropout(p=0.0, inplace=False)
                (A): PReLU(num_parameters=1)
              )
            )
          )
          (residual): Conv2d(64, 128, kernel_size=(3, 3), stride=(2, 2), padding=(1, 1))
        )
        (1): SkipConnection(
          (submodule): ResidualUnit(
            (conv): Sequential(
              (unit0): Convolution(
                (conv): Conv2d(128, 256, kernel_size=(3, 3), stride=(1, 1), padding=(1, 1))
                (adn): ADN(
                  (N): InstanceNorm2d(256, eps=1e-05, momentum=0.1, affine=False, track_running_stats=False)
                  (D): Dropout(p=0.0, inplace=False)
                  (A): PReLU(num_parameters=1)
                )
              )
              (unit1): Convolution(
                (conv): Conv2d(256, 256, kernel_size=(3, 3), stride=(1, 1), padding=(1, 1))
                (adn): ADN(
                  (N): InstanceNorm2d(256, eps=1e-05, momentum=0.1, affine=False, track_running_stats=False)
                  (D): Dropout(p=0.0, inplace=False)
                  (A): PReLU(num_parameters=1)
                )
              )
            )
            (residual): Conv2d(128, 256, kernel_size=(1, 1), stride=(1, 1))
          )
        )
        (2): Sequential(
          (0): Convolution(
            (conv): ConvTranspose2d(384, 64, kernel_size=(3, 3), stride=(2, 2), padding=(1, 1), output_padding=(1, 1))
            (adn): ADN(
              (N): InstanceNorm2d(64, eps=1e-05, momentum=0.1, affine=False, track_running_stats=False)
              (D): Dropout(p=0.0, inplace=False)
              (A): PReLU(num_parameters=1)
            )
          )
          (1): ResidualUnit(
            (conv): Sequential(
              (unit0): Convolution(
                (conv): Conv2d(64, 64, kernel_size=(3, 3), stride=(1, 1), padding=(1, 1))
                (adn): ADN(
                  (N): InstanceNorm2d(64, eps=1e-05, momentum=0.1, affine=False, track_running_stats=False)
                  (D): Dropout(p=0.0, inplace=False)
                  (A): PReLU(num_parameters=1)
                )
              )
            )
            (residual): Identity()
          )
        )
      )
    )
    (2): Sequential(
      (0): Convolution(
        (conv): ConvTranspose2d(128, 1, kernel_size=(3, 3), stride=(2, 2), padding=(1, 1), output_padding=(1, 1))
        (adn): ADN(
          (N): InstanceNorm2d(1, eps=1e-05, momentum=0.1, affine=False, track_running_stats=False)
          (D): Dropout(p=0.0, inplace=False)
          (A): PReLU(num_parameters=1)
        )
      )
      (1): ResidualUnit(
        (conv): Sequential(
          (unit0): Convolution(
            (conv): Conv2d(1, 1, kernel_size=(3, 3), stride=(1, 1), padding=(1, 1))
          )
        )
        (residual): Identity()
      )
    )
  )
)",validation/UNet/UNet_33_2022-08-18.png,4.7562672989442945e-05
2022-08-18,"UNet(
  (model): Sequential(
    (0): ResidualUnit(
      (conv): Sequential(
        (unit0): Convolution(
          (conv): Conv2d(1, 64, kernel_size=(3, 3), stride=(2, 2), padding=(1, 1))
          (adn): ADN(
            (N): InstanceNorm2d(64, eps=1e-05, momentum=0.1, affine=False, track_running_stats=False)
            (D): Dropout(p=0.0, inplace=False)
            (A): PReLU(num_parameters=1)
          )
        )
        (unit1): Convolution(
          (conv): Conv2d(64, 64, kernel_size=(3, 3), stride=(1, 1), padding=(1, 1))
          (adn): ADN(
            (N): InstanceNorm2d(64, eps=1e-05, momentum=0.1, affine=False, track_running_stats=False)
            (D): Dropout(p=0.0, inplace=False)
            (A): PReLU(num_parameters=1)
          )
        )
      )
      (residual): Conv2d(1, 64, kernel_size=(3, 3), stride=(2, 2), padding=(1, 1))
    )
    (1): SkipConnection(
      (submodule): Sequential(
        (0): ResidualUnit(
          (conv): Sequential(
            (unit0): Convolution(
              (conv): Conv2d(64, 128, kernel_size=(3, 3), stride=(2, 2), padding=(1, 1))
              (adn): ADN(
                (N): InstanceNorm2d(128, eps=1e-05, momentum=0.1, affine=False, track_running_stats=False)
                (D): Dropout(p=0.0, inplace=False)
                (A): PReLU(num_parameters=1)
              )
            )
            (unit1): Convolution(
              (conv): Conv2d(128, 128, kernel_size=(3, 3), stride=(1, 1), padding=(1, 1))
              (adn): ADN(
                (N): InstanceNorm2d(128, eps=1e-05, momentum=0.1, affine=False, track_running_stats=False)
                (D): Dropout(p=0.0, inplace=False)
                (A): PReLU(num_parameters=1)
              )
            )
          )
          (residual): Conv2d(64, 128, kernel_size=(3, 3), stride=(2, 2), padding=(1, 1))
        )
        (1): SkipConnection(
          (submodule): ResidualUnit(
            (conv): Sequential(
              (unit0): Convolution(
                (conv): Conv2d(128, 256, kernel_size=(3, 3), stride=(1, 1), padding=(1, 1))
                (adn): ADN(
                  (N): InstanceNorm2d(256, eps=1e-05, momentum=0.1, affine=False, track_running_stats=False)
                  (D): Dropout(p=0.0, inplace=False)
                  (A): PReLU(num_parameters=1)
                )
              )
              (unit1): Convolution(
                (conv): Conv2d(256, 256, kernel_size=(3, 3), stride=(1, 1), padding=(1, 1))
                (adn): ADN(
                  (N): InstanceNorm2d(256, eps=1e-05, momentum=0.1, affine=False, track_running_stats=False)
                  (D): Dropout(p=0.0, inplace=False)
                  (A): PReLU(num_parameters=1)
                )
              )
            )
            (residual): Conv2d(128, 256, kernel_size=(1, 1), stride=(1, 1))
          )
        )
        (2): Sequential(
          (0): Convolution(
            (conv): ConvTranspose2d(384, 64, kernel_size=(3, 3), stride=(2, 2), padding=(1, 1), output_padding=(1, 1))
            (adn): ADN(
              (N): InstanceNorm2d(64, eps=1e-05, momentum=0.1, affine=False, track_running_stats=False)
              (D): Dropout(p=0.0, inplace=False)
              (A): PReLU(num_parameters=1)
            )
          )
          (1): ResidualUnit(
            (conv): Sequential(
              (unit0): Convolution(
                (conv): Conv2d(64, 64, kernel_size=(3, 3), stride=(1, 1), padding=(1, 1))
                (adn): ADN(
                  (N): InstanceNorm2d(64, eps=1e-05, momentum=0.1, affine=False, track_running_stats=False)
                  (D): Dropout(p=0.0, inplace=False)
                  (A): PReLU(num_parameters=1)
                )
              )
            )
            (residual): Identity()
          )
        )
      )
    )
    (2): Sequential(
      (0): Convolution(
        (conv): ConvTranspose2d(128, 1, kernel_size=(3, 3), stride=(2, 2), padding=(1, 1), output_padding=(1, 1))
        (adn): ADN(
          (N): InstanceNorm2d(1, eps=1e-05, momentum=0.1, affine=False, track_running_stats=False)
          (D): Dropout(p=0.0, inplace=False)
          (A): PReLU(num_parameters=1)
        )
      )
      (1): ResidualUnit(
        (conv): Sequential(
          (unit0): Convolution(
            (conv): Conv2d(1, 1, kernel_size=(3, 3), stride=(1, 1), padding=(1, 1))
          )
        )
        (residual): Identity()
      )
    )
  )
)",validation/UNet/UNet_34_2022-08-18.png,0.0
2022-08-18,"UNet(
  (model): Sequential(
    (0): ResidualUnit(
      (conv): Sequential(
        (unit0): Convolution(
          (conv): Conv2d(1, 64, kernel_size=(3, 3), stride=(2, 2), padding=(1, 1))
          (adn): ADN(
            (N): InstanceNorm2d(64, eps=1e-05, momentum=0.1, affine=False, track_running_stats=False)
            (D): Dropout(p=0.0, inplace=False)
            (A): PReLU(num_parameters=1)
          )
        )
        (unit1): Convolution(
          (conv): Conv2d(64, 64, kernel_size=(3, 3), stride=(1, 1), padding=(1, 1))
          (adn): ADN(
            (N): InstanceNorm2d(64, eps=1e-05, momentum=0.1, affine=False, track_running_stats=False)
            (D): Dropout(p=0.0, inplace=False)
            (A): PReLU(num_parameters=1)
          )
        )
      )
      (residual): Conv2d(1, 64, kernel_size=(3, 3), stride=(2, 2), padding=(1, 1))
    )
    (1): SkipConnection(
      (submodule): Sequential(
        (0): ResidualUnit(
          (conv): Sequential(
            (unit0): Convolution(
              (conv): Conv2d(64, 128, kernel_size=(3, 3), stride=(2, 2), padding=(1, 1))
              (adn): ADN(
                (N): InstanceNorm2d(128, eps=1e-05, momentum=0.1, affine=False, track_running_stats=False)
                (D): Dropout(p=0.0, inplace=False)
                (A): PReLU(num_parameters=1)
              )
            )
            (unit1): Convolution(
              (conv): Conv2d(128, 128, kernel_size=(3, 3), stride=(1, 1), padding=(1, 1))
              (adn): ADN(
                (N): InstanceNorm2d(128, eps=1e-05, momentum=0.1, affine=False, track_running_stats=False)
                (D): Dropout(p=0.0, inplace=False)
                (A): PReLU(num_parameters=1)
              )
            )
          )
          (residual): Conv2d(64, 128, kernel_size=(3, 3), stride=(2, 2), padding=(1, 1))
        )
        (1): SkipConnection(
          (submodule): ResidualUnit(
            (conv): Sequential(
              (unit0): Convolution(
                (conv): Conv2d(128, 256, kernel_size=(3, 3), stride=(1, 1), padding=(1, 1))
                (adn): ADN(
                  (N): InstanceNorm2d(256, eps=1e-05, momentum=0.1, affine=False, track_running_stats=False)
                  (D): Dropout(p=0.0, inplace=False)
                  (A): PReLU(num_parameters=1)
                )
              )
              (unit1): Convolution(
                (conv): Conv2d(256, 256, kernel_size=(3, 3), stride=(1, 1), padding=(1, 1))
                (adn): ADN(
                  (N): InstanceNorm2d(256, eps=1e-05, momentum=0.1, affine=False, track_running_stats=False)
                  (D): Dropout(p=0.0, inplace=False)
                  (A): PReLU(num_parameters=1)
                )
              )
            )
            (residual): Conv2d(128, 256, kernel_size=(1, 1), stride=(1, 1))
          )
        )
        (2): Sequential(
          (0): Convolution(
            (conv): ConvTranspose2d(384, 64, kernel_size=(3, 3), stride=(2, 2), padding=(1, 1), output_padding=(1, 1))
            (adn): ADN(
              (N): InstanceNorm2d(64, eps=1e-05, momentum=0.1, affine=False, track_running_stats=False)
              (D): Dropout(p=0.0, inplace=False)
              (A): PReLU(num_parameters=1)
            )
          )
          (1): ResidualUnit(
            (conv): Sequential(
              (unit0): Convolution(
                (conv): Conv2d(64, 64, kernel_size=(3, 3), stride=(1, 1), padding=(1, 1))
                (adn): ADN(
                  (N): InstanceNorm2d(64, eps=1e-05, momentum=0.1, affine=False, track_running_stats=False)
                  (D): Dropout(p=0.0, inplace=False)
                  (A): PReLU(num_parameters=1)
                )
              )
            )
            (residual): Identity()
          )
        )
      )
    )
    (2): Sequential(
      (0): Convolution(
        (conv): ConvTranspose2d(128, 1, kernel_size=(3, 3), stride=(2, 2), padding=(1, 1), output_padding=(1, 1))
        (adn): ADN(
          (N): InstanceNorm2d(1, eps=1e-05, momentum=0.1, affine=False, track_running_stats=False)
          (D): Dropout(p=0.0, inplace=False)
          (A): PReLU(num_parameters=1)
        )
      )
      (1): ResidualUnit(
        (conv): Sequential(
          (unit0): Convolution(
            (conv): Conv2d(1, 1, kernel_size=(3, 3), stride=(1, 1), padding=(1, 1))
          )
        )
        (residual): Identity()
      )
    )
  )
)",validation/UNet/UNet_35_2022-08-18.png,0.001476343721151352
2022-08-18,"UNet(
  (model): Sequential(
    (0): ResidualUnit(
      (conv): Sequential(
        (unit0): Convolution(
          (conv): Conv2d(1, 64, kernel_size=(3, 3), stride=(2, 2), padding=(1, 1))
          (adn): ADN(
            (N): InstanceNorm2d(64, eps=1e-05, momentum=0.1, affine=False, track_running_stats=False)
            (D): Dropout(p=0.0, inplace=False)
            (A): PReLU(num_parameters=1)
          )
        )
        (unit1): Convolution(
          (conv): Conv2d(64, 64, kernel_size=(3, 3), stride=(1, 1), padding=(1, 1))
          (adn): ADN(
            (N): InstanceNorm2d(64, eps=1e-05, momentum=0.1, affine=False, track_running_stats=False)
            (D): Dropout(p=0.0, inplace=False)
            (A): PReLU(num_parameters=1)
          )
        )
      )
      (residual): Conv2d(1, 64, kernel_size=(3, 3), stride=(2, 2), padding=(1, 1))
    )
    (1): SkipConnection(
      (submodule): Sequential(
        (0): ResidualUnit(
          (conv): Sequential(
            (unit0): Convolution(
              (conv): Conv2d(64, 128, kernel_size=(3, 3), stride=(2, 2), padding=(1, 1))
              (adn): ADN(
                (N): InstanceNorm2d(128, eps=1e-05, momentum=0.1, affine=False, track_running_stats=False)
                (D): Dropout(p=0.0, inplace=False)
                (A): PReLU(num_parameters=1)
              )
            )
            (unit1): Convolution(
              (conv): Conv2d(128, 128, kernel_size=(3, 3), stride=(1, 1), padding=(1, 1))
              (adn): ADN(
                (N): InstanceNorm2d(128, eps=1e-05, momentum=0.1, affine=False, track_running_stats=False)
                (D): Dropout(p=0.0, inplace=False)
                (A): PReLU(num_parameters=1)
              )
            )
          )
          (residual): Conv2d(64, 128, kernel_size=(3, 3), stride=(2, 2), padding=(1, 1))
        )
        (1): SkipConnection(
          (submodule): ResidualUnit(
            (conv): Sequential(
              (unit0): Convolution(
                (conv): Conv2d(128, 256, kernel_size=(3, 3), stride=(1, 1), padding=(1, 1))
                (adn): ADN(
                  (N): InstanceNorm2d(256, eps=1e-05, momentum=0.1, affine=False, track_running_stats=False)
                  (D): Dropout(p=0.0, inplace=False)
                  (A): PReLU(num_parameters=1)
                )
              )
              (unit1): Convolution(
                (conv): Conv2d(256, 256, kernel_size=(3, 3), stride=(1, 1), padding=(1, 1))
                (adn): ADN(
                  (N): InstanceNorm2d(256, eps=1e-05, momentum=0.1, affine=False, track_running_stats=False)
                  (D): Dropout(p=0.0, inplace=False)
                  (A): PReLU(num_parameters=1)
                )
              )
            )
            (residual): Conv2d(128, 256, kernel_size=(1, 1), stride=(1, 1))
          )
        )
        (2): Sequential(
          (0): Convolution(
            (conv): ConvTranspose2d(384, 64, kernel_size=(3, 3), stride=(2, 2), padding=(1, 1), output_padding=(1, 1))
            (adn): ADN(
              (N): InstanceNorm2d(64, eps=1e-05, momentum=0.1, affine=False, track_running_stats=False)
              (D): Dropout(p=0.0, inplace=False)
              (A): PReLU(num_parameters=1)
            )
          )
          (1): ResidualUnit(
            (conv): Sequential(
              (unit0): Convolution(
                (conv): Conv2d(64, 64, kernel_size=(3, 3), stride=(1, 1), padding=(1, 1))
                (adn): ADN(
                  (N): InstanceNorm2d(64, eps=1e-05, momentum=0.1, affine=False, track_running_stats=False)
                  (D): Dropout(p=0.0, inplace=False)
                  (A): PReLU(num_parameters=1)
                )
              )
            )
            (residual): Identity()
          )
        )
      )
    )
    (2): Sequential(
      (0): Convolution(
        (conv): ConvTranspose2d(128, 1, kernel_size=(3, 3), stride=(2, 2), padding=(1, 1), output_padding=(1, 1))
        (adn): ADN(
          (N): InstanceNorm2d(1, eps=1e-05, momentum=0.1, affine=False, track_running_stats=False)
          (D): Dropout(p=0.0, inplace=False)
          (A): PReLU(num_parameters=1)
        )
      )
      (1): ResidualUnit(
        (conv): Sequential(
          (unit0): Convolution(
            (conv): Conv2d(1, 1, kernel_size=(3, 3), stride=(1, 1), padding=(1, 1))
          )
        )
        (residual): Identity()
      )
    )
  )
)",validation/UNet/UNet_36_2022-08-18.png,5.6047760153887793e-05
2022-08-18,"UNet(
  (model): Sequential(
    (0): ResidualUnit(
      (conv): Sequential(
        (unit0): Convolution(
          (conv): Conv2d(1, 64, kernel_size=(3, 3), stride=(2, 2), padding=(1, 1))
          (adn): ADN(
            (N): InstanceNorm2d(64, eps=1e-05, momentum=0.1, affine=False, track_running_stats=False)
            (D): Dropout(p=0.0, inplace=False)
            (A): PReLU(num_parameters=1)
          )
        )
        (unit1): Convolution(
          (conv): Conv2d(64, 64, kernel_size=(3, 3), stride=(1, 1), padding=(1, 1))
          (adn): ADN(
            (N): InstanceNorm2d(64, eps=1e-05, momentum=0.1, affine=False, track_running_stats=False)
            (D): Dropout(p=0.0, inplace=False)
            (A): PReLU(num_parameters=1)
          )
        )
      )
      (residual): Conv2d(1, 64, kernel_size=(3, 3), stride=(2, 2), padding=(1, 1))
    )
    (1): SkipConnection(
      (submodule): Sequential(
        (0): ResidualUnit(
          (conv): Sequential(
            (unit0): Convolution(
              (conv): Conv2d(64, 128, kernel_size=(3, 3), stride=(2, 2), padding=(1, 1))
              (adn): ADN(
                (N): InstanceNorm2d(128, eps=1e-05, momentum=0.1, affine=False, track_running_stats=False)
                (D): Dropout(p=0.0, inplace=False)
                (A): PReLU(num_parameters=1)
              )
            )
            (unit1): Convolution(
              (conv): Conv2d(128, 128, kernel_size=(3, 3), stride=(1, 1), padding=(1, 1))
              (adn): ADN(
                (N): InstanceNorm2d(128, eps=1e-05, momentum=0.1, affine=False, track_running_stats=False)
                (D): Dropout(p=0.0, inplace=False)
                (A): PReLU(num_parameters=1)
              )
            )
          )
          (residual): Conv2d(64, 128, kernel_size=(3, 3), stride=(2, 2), padding=(1, 1))
        )
        (1): SkipConnection(
          (submodule): ResidualUnit(
            (conv): Sequential(
              (unit0): Convolution(
                (conv): Conv2d(128, 256, kernel_size=(3, 3), stride=(1, 1), padding=(1, 1))
                (adn): ADN(
                  (N): InstanceNorm2d(256, eps=1e-05, momentum=0.1, affine=False, track_running_stats=False)
                  (D): Dropout(p=0.0, inplace=False)
                  (A): PReLU(num_parameters=1)
                )
              )
              (unit1): Convolution(
                (conv): Conv2d(256, 256, kernel_size=(3, 3), stride=(1, 1), padding=(1, 1))
                (adn): ADN(
                  (N): InstanceNorm2d(256, eps=1e-05, momentum=0.1, affine=False, track_running_stats=False)
                  (D): Dropout(p=0.0, inplace=False)
                  (A): PReLU(num_parameters=1)
                )
              )
            )
            (residual): Conv2d(128, 256, kernel_size=(1, 1), stride=(1, 1))
          )
        )
        (2): Sequential(
          (0): Convolution(
            (conv): ConvTranspose2d(384, 64, kernel_size=(3, 3), stride=(2, 2), padding=(1, 1), output_padding=(1, 1))
            (adn): ADN(
              (N): InstanceNorm2d(64, eps=1e-05, momentum=0.1, affine=False, track_running_stats=False)
              (D): Dropout(p=0.0, inplace=False)
              (A): PReLU(num_parameters=1)
            )
          )
          (1): ResidualUnit(
            (conv): Sequential(
              (unit0): Convolution(
                (conv): Conv2d(64, 64, kernel_size=(3, 3), stride=(1, 1), padding=(1, 1))
                (adn): ADN(
                  (N): InstanceNorm2d(64, eps=1e-05, momentum=0.1, affine=False, track_running_stats=False)
                  (D): Dropout(p=0.0, inplace=False)
                  (A): PReLU(num_parameters=1)
                )
              )
            )
            (residual): Identity()
          )
        )
      )
    )
    (2): Sequential(
      (0): Convolution(
        (conv): ConvTranspose2d(128, 1, kernel_size=(3, 3), stride=(2, 2), padding=(1, 1), output_padding=(1, 1))
        (adn): ADN(
          (N): InstanceNorm2d(1, eps=1e-05, momentum=0.1, affine=False, track_running_stats=False)
          (D): Dropout(p=0.0, inplace=False)
          (A): PReLU(num_parameters=1)
        )
      )
      (1): ResidualUnit(
        (conv): Sequential(
          (unit0): Convolution(
            (conv): Conv2d(1, 1, kernel_size=(3, 3), stride=(1, 1), padding=(1, 1))
          )
        )
        (residual): Identity()
      )
    )
  )
)",validation/UNet/UNet_37_2022-08-18.png,0.016959931701421738
